clash-of-dawn-main/Assets/Scripts/AI/Brains/SingleWeaponBehavior.onnx (onnx, 500536 bytes, 20 tensors)

network_body.observation_encoder.processors.0.self_ent_encoder.seq_layers.0.bias f4 [128]
000000 1a 30 ca ba 1f 29 0f bd b3 6e b1 3a 4c 60 43 bb
       -0.0015425712 -0.034951326 0.0013537019 -0.0029812036
000010 74 e4 03 ba ac bf 43 bb d4 a9 a6 3c 92 40 15 bc
       -0.00050312956 -0.0029868884 0.020344652 -0.009109633
000020 f5 5a 2b 3c 92 4d c1 39 4a 26 5b 3c f0 c4 d4 3b
       0.010458698 0.00036869623 0.013375828 0.0064932033
000030 92 ff 44 3c 5f dc ee 3b a2 ce 90 bc 41 c5 da ba
       0.012023823 0.007289454 -0.017676655 -0.0016690866
000040 08 b4 2f bc a1 9b 15 bc 48 51 94 3a 3a eb 9a bb
       -0.010724075 -0.009131343 0.0011315728 -0.004727748
000050 c2 d4 49 bc ae 6d 25 3d 97 af 6f ba da 8b d7 3c
       -0.012318792 0.0403878 -0.00091432914 0.026311804
000060 6d f1 03 3c 85 87 d7 39 7d 5d cf 3b 9f a1 84 bc
       0.008053166 0.00041108966 0.0063282833 -0.016190348
000070 c2 11 02 bb d5 bc c8 39 5a 80 de b9 b2 cb db 3b
       -0.001984701 0.00038287663 -0.0004243877 0.006707632
000080 b9 78 19 3c bb 79 09 3b b3 b0 40 bc 59 03 5f bc
       0.009367161 0.0020977098 -0.011760878 -0.013611638
000090 40 9f eb 3b 02 bf 75 bb 94 91 c3 bb 98 85 57 3c
       0.007190615 -0.0037497883 -0.005968282 0.01315441
0000a0 70 f0 5f 3c 48 47 86 bb 95 e8 3c b9 a3 50 4c bc
       0.013668165 -0.004097853 -0.0001801572 -0.012470397
0000b0 b8 65 d7 bc 70 89 e9 3b fe 70 4a bc 67 b6 2b bc
       -0.02629362 0.0071269795 -0.012356041 -0.0104805
0000c0 eb e8 00 bc d1 ad d3 bb ae d6 68 bc b9 66 80 bc
       -0.007868032 -0.0064599295 -0.01421134 -0.015673982
0000d0 cb b7 92 3a ca f5 1d 3c cb db df 3b a5 d7 41 3c
       0.0011193691 0.00964112 0.0068316213 0.011831199
0000e0 82 1c 41 3c f9 9d 17 3b 5d 9b 18 3c 32 f1 6f 3a
       0.011786582 0.002313493 0.009314385 0.00091530674
0000f0 ff 8e 08 3c b4 41 80 bc 47 a0 45 bc 54 65 96 bc
       0.008334874 -0.01565633 -0.012062139 -0.018358864
000100 d2 ba b3 3b 3b 62 3f 3c 4f f4 44 bb 9a b7 b2 3a
       0.005484917 0.011681135 -0.0030052846 0.001363504
000110 86 19 f0 3b 08 e9 2b 3c e3 fb ae bb 5d 5c 72 3c
       0.0073272614 0.010492571 -0.005340086 0.014792529
000120 51 ea 8a 3b c5 b8 62 bc ce b3 3c 3b 9b 45 58 3c
       0.0042393585 -0.013837998 0.0028793695 0.013200189
000130 e6 bc 0a 3c f6 5f 5b 3c 08 74 eb 3b ab 13 0c 3d
       0.008467888 0.013389578 0.007185463 0.034198444
000140 81 e0 f4 3b d0 c5 bb bb 74 a3 22 3b c8 4f 9f 3b
       0.007473052 -0.005730368 0.0024816664 0.0048618056
000150 bf 31 d1 bc 96 c6 38 bc 2e 52 ea 3b 98 9c 2d 3c
       -0.025536416 -0.011277815 0.00715091 0.010596417
000160 f6 c8 94 bc d5 67 29 3c f0 58 af bc b7 9c 6a 39
       -0.018162232 0.010339697 -0.021404713 0.0002237436
000170 e6 14 10 bc 10 4b c4 3b c0 cd e6 bb ec 9b 51 3b
       -0.008794045 0.0059903935 -0.0070435703 0.0031983806
000180 ec b8 b3 3b b5 28 4a 3b 79 18 7f ba 4c 4b 9b bc
       0.005484691 0.0030847017 -0.0009731125 -0.018956803
000190 0b 81 85 3c 82 b4 12 bc bf 77 24 3a f4 f9 84 bc
       0.016296884 -0.008954169 0.0006273947 -0.016232468
0001a0 1c 56 5f 3b a6 c5 a4 3a 01 93 9b 3c 71 9f ac b9
       0.0034078425 0.0012571111 0.018990995 -0.0003292519
0001b0 07 76 d9 38 12 44 27 3c 12 b7 d1 3b 49 52 57 bb
       0.00010369351 0.0102091 0.0063999975 -0.0032855442
0001c0 b6 0b 20 3b b9 ee 50 bc be 00 6d 3c 6b 17 3a 3a
       0.0024421043 -0.012752228 0.014465509 0.00070988265
0001d0 f0 b5 80 3b 9b 86 e4 bb f3 80 6c bc d2 8a 58 3c
       0.0039279386 -0.006974054 -0.014435041 0.013216691
0001e0 e8 34 6d 3c 75 06 a8 bc eb d5 5e 3c b9 80 2c 3c
       0.014477946 -0.020510891 0.013600807 0.010528737
0001f0 2c bc 9d 3c b4 02 02 bc 9e 31 00 3c 4a 16 01 bb
       0.019254766 -0.007935215 0.00782433 -0.0019697123

network_body.observation_encoder.rsa.fc_q.bias f4 [128]
000000 00 00 00 00 00 00 00 00 00 00 00 00 00 00 00 00
       0.0 0.0 0.0 0.0
000010 00 00 00 00 00 00 00 00 00 00 00 00 00 00 00 00
       0.0 0.0 0.0 0.0
000020 00 00 00 00 00 00 00 00 00 00 00 00 00 00 00 00
       0.0 0.0 0.0 0.0
000030 00 00 00 00 00 00 00 00 00 00 00 00 00 00 00 00
       0.0 0.0 0.0 0.0
000040 00 00 00 00 00 00 00 00 00 00 00 00 00 00 00 00
       0.0 0.0 0.0 0.0
000050 00 00 00 00 00 00 00 00 00 00 00 00 00 00 00 00
       0.0 0.0 0.0 0.0
000060 00 00 00 00 00 00 00 00 00 00 00 00 00 00 00 00
       0.0 0.0 0.0 0.0
000070 00 00 00 00 00 00 00 00 00 00 00 00 00 00 00 00
       0.0 0.0 0.0 0.0
000080 00 00 00 00 00 00 00 00 00 00 00 00 00 00 00 00
       0.0 0.0 0.0 0.0
000090 00 00 00 00 00 00 00 00 00 00 00 00 00 00 00 00
       0.0 0.0 0.0 0.0
0000a0 00 00 00 00 00 00 00 00 00 00 00 00 00 00 00 00
       0.0 0.0 0.0 0.0
0000b0 00 00 00 00 00 00 00 00 00 00 00 00 00 00 00 00
       0.0 0.0 0.0 0.0
0000c0 00 00 00 00 00 00 00 00 00 00 00 00 00 00 00 00
       0.0 0.0 0.0 0.0
0000d0 00 00 00 00 00 00 00 00 00 00 00 00 00 00 00 00
       0.0 0.0 0.0 0.0
0000e0 00 00 00 00 00 00 00 00 00 00 00 00 00 00 00 00
       0.0 0.0 0.0 0.0
0000f0 00 00 00 00 00 00 00 00 00 00 00 00 00 00 00 00
       0.0 0.0 0.0 0.0
000100 00 00 00 00 00 00 00 00 00 00 00 00 00 00 00 00
       0.0 0.0 0.0 0.0
000110 00 00 00 00 00 00 00 00 00 00 00 00 00 00 00 00
       0.0 0.0 0.0 0.0
000120 00 00 00 00 00 00 00 00 00 00 00 00 00 00 00 00
       0.0 0.0 0.0 0.0
000130 00 00 00 00 00 00 00 00 00 00 00 00 00 00 00 00
       0.0 0.0 0.0 0.0
000140 00 00 00 00 00 00 00 00 00 00 00 00 00 00 00 00
       0.0 0.0 0.0 0.0
000150 00 00 00 00 00 00 00 00 00 00 00 00 00 00 00 00
       0.0 0.0 0.0 0.0
000160 00 00 00 00 00 00 00 00 00 00 00 00 00 00 00 00
       0.0 0.0 0.0 0.0
000170 00 00 00 00 00 00 00 00 00 00 00 00 00 00 00 00
       0.0 0.0 0.0 0.0
000180 00 00 00 00 00 00 00 00 00 00 00 00 00 00 00 00
       0.0 0.0 0.0 0.0
000190 00 00 00 00 00 00 00 00 00 00 00 00 00 00 00 00
       0.0 0.0 0.0 0.0
0001a0 00 00 00 00 00 00 00 00 00 00 00 00 00 00 00 00
       0.0 0.0 0.0 0.0
0001b0 00 00 00 00 00 00 00 00 00 00 00 00 00 00 00 00
       0.0 0.0 0.0 0.0
0001c0 00 00 00 00 00 00 00 00 00 00 00 00 00 00 00 00
       0.0 0.0 0.0 0.0
0001d0 00 00 00 00 00 00 00 00 00 00 00 00 00 00 00 00
       0.0 0.0 0.0 0.0
0001e0 00 00 00 00 00 00 00 00 00 00 00 00 00 00 00 00
       0.0 0.0 0.0 0.0
0001f0 00 00 00 00 00 00 00 00 00 00 00 00 00 00 00 00
       0.0 0.0 0.0 0.0

network_body.observation_encoder.rsa.fc_v.bias f4 [128]
000000 8d a5 3e bc 8f 80 d1 3c 15 b3 dc bb de 6d 75 3c
       -0.01163615 0.025573997 -0.0067352154 0.014979808
000010 3c 7b 35 bc 0d 2e c2 3c f6 10 9e bc 35 08 87 3c
       -0.011076745 0.0237036 -0.019295197 0.016483406
000020 06 5f d7 3b 9c 62 2d 3c 68 77 a1 bc df 1d 19 3b
       0.006572607 0.010582592 -0.019710258 0.0023363752
000030 1d 19 0b 3d da dc 5e bc 0d 46 18 bc 78 27 d8 3a
       0.033959497 -0.01360246 -0.009294045 0.0016491255
000040 b1 6c c1 39 43 e1 46 3c 84 72 76 bb db 1a 48 bc
       0.0003689281 0.0121386675 -0.0037604878 -0.012213434
000050 86 72 dd 3b 57 ee 77 3c db 2c 8f 3c 2e 0c 19 bc
       0.006758037 0.015132508 0.017477443 -0.009341283
000060 18 b6 15 ba 2f d3 28 bc f3 cd 67 bb 14 c1 69 bc
       -0.0005711033 -0.010304256 -0.0035370558 -0.014267225
000070 5d 29 82 bc f5 a2 e6 b9 e2 33 96 bb ce 2c ad bb
       -0.015888864 -0.0004399043 -0.0045838216 -0.005284882
000080 de af 75 3b 4b 15 1e bc 26 34 53 bb 0e 72 b1 bc
       0.0037488858 -0.009648631 -0.0032227128 -0.02166083
000090 90 b4 ae 3c 7e 87 f7 bb e4 21 87 3c 6e 21 00 3c
       0.021326333 -0.0075539937 0.016495652 0.00782047
0000a0 1c c3 15 3c 62 66 ea 3c ae d7 a2 3c 83 b5 aa 3c
       0.009140756 0.028613273 0.019878235 0.020838505
0000b0 22 1a 6e bc c3 5a 00 3b 77 a4 b1 bb 9f 5b 3e 3c
       -0.014532598 0.0019585348 -0.005421217 0.011618524
0000c0 19 e9 97 3c 97 fa 4c 3b b1 78 72 3c d5 bc b1 3c
       0.018543767 0.0031277293 0.014799283 0.021696487
0000d0 f2 40 b6 3c 27 55 09 bc 7a 0f 28 bc 57 78 a6 3c
       0.022247765 -0.008382118 -0.010257596 0.020321054
0000e0 3e 94 6b b9 d2 cc 20 bd 4a bd 95 3c 6a 78 ec 3b
       -0.00022466571 -0.039257832 0.018278737 0.007216503
0000f0 f6 38 93 bc e4 52 80 bb 62 cb 02 3d b1 8a 79 bc
       -0.017971497 -0.0039161313 0.031932242 -0.0152308205
000100 79 17 b6 bc 78 52 3a bc 8c 75 e9 3c 33 75 c1 bc
       -0.02222799 -0.011372201 0.028498434 -0.023615455
000110 13 a6 03 3c 34 e7 07 3c 70 cb 76 3b 69 af 67 3c
       0.008035201 0.008294869 0.003765788 0.014140942
000120 5a 34 5f bc b5 ce 81 bc a5 9d b1 bb 8d 43 f0 3c
       -0.013623321 -0.015845636 -0.005420404 0.029329086
000130 da 8b 76 bc e9 38 86 bc f4 6a c1 ba a2 15 5e 3b
       -0.015047992 -0.016384559 -0.0014756606 0.0033887406
000140 90 9f 91 ba 31 f4 43 ba c1 59 c7 3c f8 10 9d 3c
       -0.0011110175 -0.0007475047 0.02433479 0.01917313
000150 0c 64 41 3c ee 73 be bc b6 e3 c1 bc e1 47 3c bc
       0.011803638 -0.023248639 -0.023668151 -0.011491747
000160 51 62 93 3c 1b 57 2c bb 9b 0a e4 3b b7 1b 0a 3c
       0.017991217 -0.0026297036 0.006959272 0.008429459
000170 9a 2d 95 3b 1e 1e a8 3c 47 f6 2d bc e9 a1 57 3b
       0.0045525553 0.020522173 -0.010617799 0.0032902902
000180 98 c1 40 bb 01 58 cc bb e9 eb 22 3c e7 f3 62 3c
       -0.0029412266 -0.006236077 0.009943941 0.013852096
000190 12 8c 09 ba 7e 86 35 3c c6 28 c6 ba 2f 3a dd bc
       -0.00052470074 0.011079429 -0.0015118353 -0.027005283
0001a0 47 a1 46 ba 19 df 57 bc 16 ed 1c 3c 7b 17 08 bc
       -0.0007577133 -0.013175749 0.00957801 -0.008306379
0001b0 09 ff df bc 6f d8 29 bc 08 00 d5 3b cf 56 92 3c
       -0.02734329 -0.010366543 0.006500248 0.01786366
0001c0 cd 8f 49 3c 6f 8d 03 3d d0 58 92 3b af 8d 9d bc
       0.012302351 0.032117303 0.0044661537 -0.019232599
0001d0 ce 68 b1 3c dd 59 b8 3b a9 33 9e bc 9e 4a 61 bc
       0.02165642 0.005625947 -0.019311743 -0.0137507
0001e0 7b 9c cc bc 52 f8 95 3c 6c d2 18 3c f8 46 a4 bc
       -0.02497696 0.018306885 0.009327512 -0.020053372
0001f0 a9 ff ce 3b 1f 04 63 bb 64 47 46 bc 99 8c 10 3c
       0.006317098 -0.0034639908 -0.012101982 0.008822584

network_body.observation_encoder.rsa.fc_out.bias f4 [128]
000000 c8 bd 28 bb bf 39 b0 bc 1f 2b 42 bb 3f 5b 39 3c
       -0.0025747884 -0.02151191 -0.0029627753 0.011313259
000010 d4 12 49 bb 47 b8 dc 3a 64 a0 22 3c 5c 54 04 3c
       -0.0030681388 0.0016839587 0.009925935 0.0080767535
000020 91 98 e6 3c ed b8 08 3c 2c dd 08 bb 4f 96 61 3c
       0.028148921 0.008344871 -0.0020883782 0.0137687465
000030 76 0b 9b bb 7e 5e c0 bc 58 7a 99 bc df 69 12 bc
       -0.004731591 -0.023482557 -0.018735096 -0.008936374
000040 e0 bc 98 bc 2a ac ca 3b c3 94 71 3c c8 b8 9e bc
       -0.01864475 0.0061850743 0.01474494 -0.01937522
000050 e9 61 1a bb f3 14 0c 3d 3d 65 4c bc 69 10 c3 ba
       -0.0023556894 0.034199666 -0.012475309 -0.001488221
000060 ce 25 dd 3b 08 15 a7 3c c5 1b 92 3c 2c c7 68 3c
       0.0067488914 0.02039577 0.017835507 0.0142076425
000070 86 d5 00 3a ba 64 04 3c c5 8b f1 b9 0f 34 19 bc
       0.000491463 0.008080656 -0.00046071238 -0.009350791
000080 ad 27 ad 3c 8d f9 e1 3a d8 0b c2 bb db c9 33 bc
       0.021137083 0.001724051 -0.005921822 -0.010973419
000090 ae 67 39 bc b9 a3 7a 3c 2f 66 eb bb 80 db 5b bc
       -0.011316223 0.015297824 -0.007183812 -0.013419032
0000a0 88 77 70 3c c8 89 88 ba ac 73 64 bc e6 41 94 3b
       0.014676936 -0.0010417039 -0.013943594 0.0045244573
0000b0 38 5b c5 3b f8 59 5e bc 68 f0 14 bc 03 f7 94 bc
       0.006022837 -0.013571255 -0.00909052 -0.01818419
0000c0 8f 82 13 bb 82 49 ad 3b 8c 7f d1 3b f3 f1 51 bb
       -0.002250824 0.005288304 0.0063933786 -0.0032035082
0000d0 8c 61 12 bc 3f 6e fa bc 10 f7 16 3c e9 cd 42 3c
       -0.00893439 -0.030570148 0.009214178 0.011889913
0000e0 3a 5a fd 3c ef 02 c7 bb c4 66 29 bc 42 13 38 bc
       0.030926812 -0.0060733478 -0.010339443 -0.01123506
0000f0 83 6d b1 3c f6 a1 fc b8 58 fa 85 3c fb 6c 0b 3c
       0.021658665 -0.00012046464 0.016354725 0.00850987
000100 39 c1 60 bc b9 1f a4 3c f8 08 82 bc a3 d5 38 3c
       -0.013717943 0.020034658 -0.015873417 0.011281404
000110 40 e7 3a 3c 62 7e a0 ba 2d 31 b4 3b 68 ba 11 3c
       0.011407673 -0.0012244696 0.0054990263 0.00889454
000120 4e c5 ab bc c6 11 8c bc a4 61 56 bb 9c c8 cc 3c
       -0.020968106 -0.017098319 -0.0032712007 0.024998002
000130 d5 33 7a 3c 90 fc b6 3a f3 5f c6 3c 76 59 8b 3c
       0.015271147 0.0013960768 0.024215674 0.017010432
000140 bd 62 93 3c 6a 94 82 3b bd 81 96 bc a7 67 52 bc
       0.017991418 0.0039849775 -0.01837241 -0.012842095
000150 11 99 50 bc 0b 2f 6c bc 00 b5 ce 3b 9d 79 cf ba
       -0.012731806 -0.014415513 0.006308198 -0.001582909
000160 0b 41 e2 bb da 0c e5 3b 8e c7 96 bc 42 99 63 bc
       -0.0069047264 0.0069900574 -0.018405702 -0.01389152
000170 e2 a3 74 bc 84 20 37 3c ac 0f 20 bd a9 45 1a 3b
       -0.014931651 0.011177186 -0.039077446 0.0023540056
000180 d2 05 ed 3b df c7 e6 ba dd 4d 8a ba 26 4f 50 bc
       0.00723336 -0.0017607174 -0.001055177 -0.012714183
000190 06 c9 ab 3a 9a 2e d0 3c f6 43 a8 bc 57 e7 06 3c
       0.0013106174 0.025412846 -0.020540219 0.008233867
0001a0 94 ae 6e 3c e6 ac be bb 4b 80 1a ba 57 ab c5 bc
       0.01456799 -0.005818951 -0.0005893751 -0.024129553
0001b0 16 2b bf 3b 62 94 9b 3b 92 c7 c4 3b f3 4f f3 bb
       0.0058339937 0.004747913 0.006005236 -0.007425302
0001c0 05 bd 4c bb 9d 10 0c 3c 96 a2 7f 3c 71 f1 82 3c
       -0.0031240594 0.008548883 0.015602728 0.015984269
0001d0 76 2b 07 3c e5 74 f3 3c 01 b4 61 bc 10 d4 90 b9
       0.008250108 0.029718826 -0.013775826 -0.0002762382
0001e0 6a 2f 97 3b 1b cd 01 bc 2d 19 31 bc b4 a7 fb 3b
       0.0046138065 -0.007922436 -0.010809225 0.007679904
0001f0 40 30 0e 3c f9 fe e3 bc 88 35 8c 3c 3f fd 11 bb
       0.008678496 -0.027831541 0.01711537 -0.002227619

network_body.observation_encoder.x_self_encoder.seq_layers.0.weight f4 [128, 3]
000000 42 de a3 bc 4f 76 99 bd 42 91 bd ba 09 72 d0 bc
       -0.020003442 -0.07493269 -0.0014462846 -0.025445001
000010 81 05 3a bd d9 47 be bb 87 3d 12 3e ce 23 26 bc
       -0.045415405 -0.0058069048 0.14281283 -0.010140372
000020 ea 0c 9a 3b ba 13 ba 3d d0 23 84 3c 52 3f 8e 3c
       0.0047012465 0.09085794 0.016130358 0.017364178
000030 8a bb 61 bb 0e 7f 59 bd 21 d2 70 b9 14 bc 83 3d
       -0.0034444057 -0.053099684 -0.00022966463 0.064323574
000040 fc 32 75 3c c1 c3 59 3c bd ba 83 3d 7c 7e 85 bc
       0.014965769 0.0132913 0.06432102 -0.016295664
000050 2f 9c 36 bc a7 a8 a2 bc ec b1 24 3d 87 49 7f 3c
       -0.0111456355 -0.01985581 0.040208742 0.015581495
000060 76 7b 66 bc d1 54 ca bc 01 57 41 bc 2f ba 85 3c
       -0.014067521 -0.024698647 -0.0118005285 0.01632413
000070 e6 d8 1d 3d 73 ca 89 bc 7a 9e e1 bc 94 00 94 bd
       0.03853693 -0.016820168 -0.027541388 -0.07226673
000080 81 07 65 bc ce 9b d3 3d f5 ab 17 3d 08 b6 d1 bc
       -0.01397884 0.10332452 0.037029225 -0.025599495
000090 c2 50 95 3c 0a 66 fc bc f5 e7 97 bc be 45 03 bd
       0.018226985 -0.030810375 -0.018543223 -0.032048933
0000a0 72 97 44 bb 3d df 92 3b fc 3d d9 3c ec 07 a8 bd
       -0.0029997495 0.0044821785 0.026518814 -0.08204636
0000b0 cf 8e 67 bc 22 c0 b3 bc 04 27 b4 bd 88 d3 14 bd
       -0.014133169 -0.021942202 -0.08796504 -0.036334544
0000c0 9e b9 29 3d 3e b2 e2 bb e7 23 17 bd e4 ed d2 3d
       0.041436784 -0.006918221 -0.036899474 0.1029928
0000d0 dd 86 d4 bc 68 5b 64 bc 6c ac 83 bd 32 3b 37 3d
       -0.025943214 -0.013937809 -0.06429371 0.044734187
0000e0 66 ba b3 3c 89 e8 86 3d f7 d1 4c bd 38 8b f8 ba
       0.021939468 0.06587321 -0.050004926 -0.0018962389
0000f0 e3 1f 84 3c 5d 68 32 bd 1b 39 04 3d ef de cc bd
       0.016128486 -0.04355656 0.032281023 -0.10003459
000100 82 65 00 bb f5 aa 04 3d 3b c9 27 bc a8 60 7e 3c
       -0.0019591753 0.0323896 -0.010240848 0.015525974
000110 cc 3b 21 b9 57 25 e0 3d 51 ca e6 bc e6 a9 de 3b
       -0.00015376433 0.10944622 -0.028172644 0.006795156
000120 16 ab bf 3d 20 7b 97 bd 1e f1 4c bc 5d 76 99 3c
       0.09358804 -0.07396531 -0.012508659 0.018733198
000130 d1 db c4 bb d9 82 63 ba 5b a5 32 bd 2c b4 8a bd
       -0.0060076495 -0.00086788606 -0.043614727 -0.06772646
000140 d6 7f 51 bb 64 38 1d bd ed 8e 2d bd 2d b6 5f 3b
       -0.0031967065 -0.038383856 -0.042372633 0.0034135685
000150 fb 2f 7c bc 36 09 2f bd 7d a7 6b bc f2 13 11 be
       -0.015392299 -0.042733394 -0.014383194 -0.14167765
000160 2b d5 f4 3a 63 6f 7c 3c 2c bd 0b 3e 47 64 73 ba
       0.0018679252 0.015407416 0.13646382 -0.0009284657
000170 c1 84 56 bc 70 f2 63 3c d2 69 b7 bc f1 33 ae b9
       -0.013093174 0.013912782 -0.022389326 -0.00033226566
000180 16 b5 ff 3d 37 07 d7 3c 1a 77 95 bc b8 fc e3 3d
       0.12485711 0.026248557 -0.018245269 0.11132187
000190 b2 5d 0a 3c 68 01 2c bd 3f 51 e2 3d 7d 82 ab bc
       0.00844519 -0.04199353 0.11050653 -0.020936245
0001a0 53 51 d2 bc e7 77 f8 3d bd b7 12 3d b9 99 f7 3a
       -0.025673544 0.121322446 0.035819758 0.0018890417
0001b0 a0 31 64 bc d8 a9 07 bd 00 ce 5a bc 9d 3d 61 bc
       -0.013927847 -0.03312096 -0.013354778 -0.0137476
0001c0 50 2d 34 3d f8 02 7c bc 9a 26 ac 3d 0a 8a 81 3c
       0.043988526 -0.015381567 0.084058 0.015812892
0001d0 42 19 2e 3d 24 2c 19 3e de 34 62 bd e0 a3 48 bc
       0.042504556 0.14958245 -0.0552262 -0.012246102
0001e0 96 b2 66 bd a0 55 14 bd 16 36 0f 3c 44 38 a2 3d
       -0.056322657 -0.03621447 0.008740922 0.07920888
0001f0 e0 9c 1b bd 79 e2 6c 3c 4a 7b 01 bd de 1a 39 bc
       -0.037991405 0.014458292 -0.03161172 -0.01129791
000200 cc 54 bb 3b 28 70 ff bc b0 1a 85 3d 61 d8 82 bc
       0.0057168957 -0.03118141 0.06499231 -0.015972318
000210 95 7e 92 bc 84 8d 39 bd 94 f9 37 bc 3f 76 a0 3d
       -0.017882625 -0.045300975 -0.011228938 0.07835054
000220 db e2 39 3d 3a bd 02 37 1a fe 40 3c 7d 0a da bc
       0.04538236 7.792662e-06 0.0117793325 -0.02661633
000230 a1 b3 86 bb 49 e5 8c bd 2b d0 19 3a e0 9a 62 3b
       -0.004110769 -0.0687967 0.0005867506 0.0034577176
000240 1c 38 ef bd 76 99 88 bc ec f4 93 3c 34 ad 84 bd
       -0.11680624 -0.016674738 0.018061124 -0.064783484
000250 47 57 24 bb 82 6e 11 3c 0b 7c 17 bd 78 94 0c 3d
       -0.0025076435 0.008876445 -0.03698353 0.03432128
000260 22 be 10 3c d9 09 05 3d 7e 84 3a 3d 62 ec c6 3c
       0.008834394 0.032480095 0.04553651 0.024282638
000270 44 61 01 3d 47 e4 ac bd a5 73 a6 3c 03 61 73 bd
       0.0315869 -0.08441978 0.020318815 -0.05941869
000280 06 61 63 3b 1e 3b 80 3c 5f c1 99 3d 50 80 20 bd
       0.0034695282 0.01565319 0.07507586 -0.03918487
000290 6e ad ca 3c eb a5 9e 3d fa d4 af bc c2 a6 3f bc
       0.0247409 0.0774649 -0.02146386 -0.011697473
0002a0 cf dd e3 bd 9b 68 83 3c f7 04 f3 3c d3 ef 84 3d
       -0.11126291 0.01604109 0.029665453 0.06491055
0002b0 13 74 58 3c 6e 16 ac 3b 7f b3 f8 3d 16 28 53 3d
       0.013211268 0.0052516973 0.12143611 0.0515519
0002c0 0a e0 8a 3b 60 77 13 bc f9 7f c3 3c 93 85 41 3b
       0.0042381333 -0.009000629 0.023864733 0.002952908
0002d0 47 35 ec bb 33 25 51 3d fa dc f4 3a 45 84 5a bd
       -0.0072084996 0.051060867 0.0018681579 -0.0533488
0002e0 d6 62 26 3d 2b 9e cd bc 0d 16 11 3d 14 1f 94 3d
       0.0406216 -0.025099834 0.03542142 0.0723249
0002f0 cd ad 9f bc 93 84 29 3c 76 05 0d 3d 0c a6 25 3c
       -0.019492054 0.01034655 0.034429036 0.010110389
000300 6e 46 d9 bb 66 1f d8 3b 08 1c 0d b9 1f cb b1 3b
       -0.0066307103 0.00659554 -0.0001345725 0.0054258252
000310 96 d6 18 bd c3 a6 3f ba fb 1f 54 3c 48 7c 5d bd
       -0.03731402 -0.0007310921 0.012947078 -0.054073602
000320 0d c4 dc bb 9f ac 14 3d 35 7b 15 3d b5 1f 05 bb
       -0.0067372383 0.036297437 0.036494453 -0.0020313088
000330 d4 79 37 3d 34 00 46 3d b1 2b 45 3c 9a 3a 61 bd
       0.04479392 0.048340037 0.012034343 -0.054987527
000340 a0 61 02 bd ac ab a5 3b 4f de 33 3d 54 d5 87 3d
       -0.031831384 0.0050558653 0.043913182 0.06632486
000350 41 db 80 bb 80 f0 1f bd ce 27 9c bd e9 7e 42 bd
       -0.003932387 -0.039047718 -0.0762478 -0.047484312
000360 f3 0a ad 3c 34 84 80 3c b3 db 98 3c e9 a6 20 bc
       0.021123385 0.01568804 0.018659448 -0.0098054195
000370 dc 8c b4 3d 8e 52 20 bc d7 62 c8 bd 57 42 36 3c
       0.08815929 -0.009785308 -0.09784477 0.011124215
000380 64 0c a7 ba 1a 2c 9e 3c 83 70 7a bd 8d 73 87 3c
       -0.0012744782 0.019308139 -0.061142456 0.016534591
000390 42 ed 59 bb 6d 31 94 3c 54 bf 63 3a cd 50 66 bb
       -0.003325299 0.018089974 0.0008687873 -0.0035143376
0003a0 83 27 bb bc 94 7e a8 bb 9e 8e 11 3d 3e 61 a9 3c
       -0.02284599 -0.0051420424 0.0355364 0.020676252
0003b0 52 c7 e3 3c be 3f 44 3d 06 ce a1 3c 5d 39 04 3d
       0.027805004 0.04791235 0.01975156 0.03228127
0003c0 21 a2 de 3d 60 5b 9c bc ab da 2a 3c bd 65 a8 bd
       0.108707674 -0.01908654 0.010428111 -0.0822253
0003d0 96 09 48 3c 8f 76 90 3b f9 87 0f 3e 05 12 c6 3a
       0.012209317 0.0044086645 0.14016713 0.0015111571
0003e0 75 ad 07 bc b1 10 0d 3e e7 cc c4 3c c0 4d 85 bc
       -0.0082811015 0.13775899 0.024023486 -0.016272426
0003f0 88 ce c4 bd aa ac d0 bc 1b 0a 31 bb fd 35 49 3d
       -0.09609705 -0.025472958 -0.002701408 0.049123753

network_body.observation_encoder.x_self_encoder.seq_layers.0.bias f4 [128]
000000 fc ff ef 3b c7 f9 a3 3b 81 f2 f4 3a 43 d5 9f bb
       0.007324217 0.005004141 0.0018687994 -0.0048777177
000010 df 42 9e 3b 43 79 8c bb f0 3c ee 3b c1 f5 3a bc
       0.004829749 -0.0042869165 0.007270448 -0.011411131
000020 a4 69 e6 3b ff e9 bd 3a 55 97 1c 3c 12 12 1c 3c
       0.0070316363 0.0014489292 0.009557565 0.009525793
000030 bf 86 2c 3c 15 ba 96 bb cb 7c 52 3c b9 cf a5 3c
       0.010530173 -0.0045998194 0.012847136 0.020240651
000040 41 6a 51 3c 7e dd 27 3c a0 2f 60 bc c3 a8 df 3b
       0.012781681 0.010245679 -0.01368323 0.006825538
000050 bc d6 71 bb f4 f8 58 bc ca 7e 2b bb 41 16 8f 3b
       -0.0036901673 -0.013242949 -0.0026168101 0.0043666665
000060 33 9e 56 3c ff 29 3e 3b f4 80 7f 3b 79 30 30 3b
       0.013099241 0.002901673 0.0038986774 0.002688436
000070 b3 41 f7 3b d0 7f 07 bc f4 dd 00 3c 9e 6a 47 3b
       0.0075456738 -0.008270219 0.007865418 0.003042854
000080 e3 9c 05 3c 96 8f 88 3c 27 3b 71 3c c5 ac f4 ba
       0.0081550805 0.01667003 0.014723576 -0.0018667212
000090 db b2 cd 3b 18 4d 1a 3b 03 31 81 bc 6d 8c 3e 3c
       0.0062774247 0.0023544487 -0.01577044 0.01163016
0000a0 08 a5 b3 b9 98 21 0a 3a d9 5e 6f b9 6f 6e b7 ba
       -0.00034264498 0.0005269288 -0.0002282815 -0.0013994704
0000b0 27 d3 12 3c f8 58 22 bb a2 28 6d 3b e5 75 7f bb
       0.008961475 -0.0024772268 0.003618755 -0.0038980183
0000c0 97 09 26 bc e3 b2 c8 bb e9 38 fd bb a7 70 35 bc
       -0.010134122 -0.0061248406 -0.0077277315 -0.011074222
0000d0 d4 a5 32 3b 0e 88 e3 bb dc b4 b3 bb a0 d1 01 3c
       0.0027259486 -0.006943709 -0.0054842066 0.007923514
0000e0 04 57 6b bc fd 7d 21 bb 97 6b 8a bb 6d 98 9b bb
       -0.014364008 -0.0024641745 -0.0042242515 -0.004748395
0000f0 b3 60 b4 bb c2 87 42 3b 32 e1 94 b9 e8 ab d7 bb
       -0.0055046915 0.0029682969 -0.00028396543 -0.006581772
000100 ce c8 a4 ba 9f 20 76 3b 36 8f f0 3b 2e 0f 17 bb
       -0.0012572051 0.0037556065 0.007341291 -0.002304982
000110 cf 93 0a bc de 9d 58 3a a5 d2 ae bb 65 68 b5 3c
       -0.008458092 0.000826327 -0.0053351694 0.022144506
000120 42 d2 ee bb 86 82 be bb 5e 63 27 bb 5f ea 93 3a
       -0.0072882483 -0.0058138995 -0.0025541405 0.0011285058
000130 a3 53 3f bb 7d 6e 62 3b 6e b6 40 bc 41 9e 59 bc
       -0.0029194138 0.003455072 -0.011762245 -0.01328236
000140 02 9d 00 bb 75 15 a6 bb c3 4f 82 3b 46 0b ff 3b
       -0.0019624834 -0.005068476 0.0039767935 0.0077833263
000150 33 e3 e4 b9 28 8b 1f 3c 21 7d 8f 3c 74 c3 81 3b
       -0.00043656825 0.009737767 0.01751572 0.0039600674
000160 7b 9b 6d ba d7 16 2b bb 6e 6c a0 3b fe fa 76 3a
       -0.0009064001 -0.0026106143 0.0048957383 0.0009421556
000170 a7 7c 50 3b 92 91 1e bc 94 a8 49 bc 17 16 d8 ba
       0.003181258 -0.009678261 -0.012308259 -0.0016486075
000180 b9 56 be 3b 20 a1 56 3b e5 54 02 3c 39 0f 66 bb
       0.005808678 0.0032749847 0.007954811 -0.0035104288
000190 21 09 f1 bb 9b 65 e9 3a 7e 8c 8d bb 3d d3 20 bb
       -0.0073558246 0.001780677 -0.0043197265 -0.002453997
0001a0 39 0d 4d 3c 55 60 dd 3b 8f 11 d3 ba 18 6a 01 3b
       0.01251536 0.0067558684 -0.0016103255 0.0019747075
0001b0 e8 19 cd 3a c3 e8 0f 3c 25 ab 3a 3a 03 fb 27 bc
       0.001564798 0.008783522 0.00071208394 -0.010252717
0001c0 5f 90 0e bc 08 cc 68 bb 90 91 e1 bb e5 5a 33 3c
       -0.008701413 -0.0035522003 -0.0068838075 0.010946964
0001d0 a9 9a de 3a 7c 52 2d 3c 1c 35 15 bb 9b 49 b3 bb
       0.0016983348 0.010578748 -0.0022767251 -0.005471421
0001e0 2e fa 8e 39 2a a7 1d b8 70 4c 8c 3b c7 75 f6 b9
       0.0002727075 -3.75874e-05 0.004281573 -0.00047008527
0001f0 9c f1 59 bc 45 30 12 bc 3e 65 0b 3c 4a 7d 1d 3b
       -0.013302233 -0.008922641 0.008508025 0.0024030977

network_body._body_endoder.seq_layers.0.weight f4 [128, 131]
000000 12 fb 25 3e 9d 38 cc bd 44 34 45 3b a5 89 c8 bd
       0.16209057 -0.099717356 0.0030090967 -0.097918786
000010 db 85 fa bb 8d 6d 1d bd ed 43 f7 3d 8a b4 43 be
       -0.0076453513 -0.038434554 0.12073503 -0.19111839
000020 e2 f1 39 bd c2 a9 fd bd 7c 05 c5 3d 05 89 dc bd
       -0.045396693 -0.12385894 0.09620187 -0.10768322
000030 cb 0e 2c 3d 9e 73 b9 bd b6 dd 6a 3e d1 40 61 3e
       0.042006295 -0.09055255 0.22936139 0.21997382
000040 39 cb 81 3d 93 e0 a0 bd 74 28 3f 3c 5b 3b 43 3e
       0.0633759 -0.07855334 0.01166736 0.19065611
000050 76 51 03 3e b3 7b d2 3d 1f 0c 65 bd 4c ba 73 3d
       0.12824044 0.102775 -0.055919763 0.05950384
000060 02 2b 98 bc dc b5 cd 3d c5 54 c7 3d 44 3d 0c bd
       -0.018575195 0.100444525 0.097329654 -0.034238115
000070 18 90 02 3d 15 52 f3 3d 09 68 3c bc 75 52 1a bd
       0.0318757 0.1188089 -0.011499413 -0.037676293
000080 fc 3c 69 3e 3d 72 c3 bd 9f f0 e5 3d a6 fd 16 be
       0.2277717 -0.095432736 0.112275355 -0.14745197
000090 d8 29 df bb b3 11 32 be 0a 94 2b 3e 37 0c 34 be
       -0.006810408 -0.17389564 0.16755691 -0.17582785
0000a0 5c fe 88 3c 36 b9 72 3d e8 bd 02 3e ca b9 8d 3d
       0.01672285 0.059258662 0.12767756 0.06920202
0000b0 6c 97 5b bd 3e 63 73 3b fc af 2d bc b3 99 66 bd
       -0.053611204 0.003713801 -0.01060104 -0.056298923
0000c0 3d 28 87 3c 33 9b 9e 3d 16 60 60 bc 6a 2e 26 be
       0.01649868 0.07744446 -0.013694784 -0.16228643
0000d0 0d 6e 8a bd 79 12 7a 3b 49 29 2e bd f8 13 b5 3d
       -0.06759272 0.0038157983 -0.04251984 0.08841699
0000e0 34 17 0f be c5 20 ab 3c 1f f9 20 bd 1a 9a f5 bc
       -0.13973695 0.02088965 -0.03930008 -0.029980708
0000f0 55 7f 7a bd 34 df 50 bd 12 f2 b0 3d f6 55 10 be
       -0.06115659 -0.050994113 0.08639921 -0.14095291
000100 90 86 4d bd da 70 c5 bd 6e 05 e0 bd bd ab 3b 3d
       -0.050177157 -0.09640665 -0.10938536 0.04581808
000110 88 dd fe bc ab e2 17 3d 6e 6a 30 3d 35 57 10 be
       -0.031111494 0.0370814 0.04307025 -0.14095767
000120 32 a9 7b 3d 75 65 2e 3e b7 e8 33 bd 50 ad 4c 3d
       0.061440654 0.1703089 -0.043923106 0.04996997
000130 c9 27 39 3e c7 8f d7 3d fe 96 3d 3c a6 e6 9b bb
       0.18081583 0.1052547 0.011571644 -0.00475772
000140 51 0c 2a 3d e3 a5 68 3c 23 17 85 3d 0a 27 96 3d
       0.041515652 0.014199707 0.064985536 0.07331665
000150 92 58 85 bd 02 76 03 3e ca a5 07 3d 27 54 1f be
       -0.06511034 0.12837985 0.033117093 -0.15559445
000160 88 86 d5 3d 71 9d 69 3d 5d ef 0d be 48 c1 d3 bc
       0.104260504 0.057034913 -0.13860841 -0.025849
000170 9d 4f 4e bd f8 38 04 3e 53 63 82 bc b8 b9 8b 3d
       -0.050368894 0.12912357 -0.015916502 0.068225324
000180 25 dc 28 3e 1d ca 24 3d eb 22 25 3b 0c 92 84 3c
       0.16490228 0.040231813 0.0025197815 0.016182922
000190 8a 30 14 3e 88 09 e7 bd 1f fd f6 bc 26 9e b2 bc
       0.14471641 -0.11281115 -0.030149994 -0.021803927
0001a0 0a 45 83 3d 6b 92 56 3d 64 0c 8c 3d ec 8b b9 3d
       0.064096525 0.05238573 0.06838301 0.09059891
0001b0 80 94 a9 3c 80 c4 0b bd 2d 15 84 3d a9 24 28 3e
       0.020700693 -0.034122944 0.064493515 0.16420235
0001c0 a1 69 10 be c3 4e 3f be 70 2a 48 bd e7 c6 93 3d
       -0.14102794 -0.18682389 -0.048868597 0.07215672
0001d0 7d 89 a1 3c 1a 6f 83 bd 7c f9 eb 3d 71 1c fe ba
       0.01971888 -0.06417675 0.11522195 -0.0019387138
0001e0 fd d7 7f 3d c5 bb f5 3d 1a 56 a1 bd f6 15 8e bd
       0.06246184 0.11998705 -0.07877751 -0.069377825
0001f0 f0 d0 e6 bc ea c3 22 bc 98 59 8a bd da bc 6d 3c
       -0.028175801 -0.009934405 -0.0675537 0.014510358
000200 37 23 1c 3d bf 36 8a 3d a8 c9 7a bc 2a 31 7f bc
       0.03811952 0.06748723 -0.015306868 -0.0155756865
000210 94 0b 1f bd c7 ab 0e 3e bc 61 ea bd 90 74 81 3d
       -0.0388294 0.13932715 -0.114444226 0.06321061
000220 b1 4c d2 3c e3 e1 69 bd 85 28 16 3e 1d a2 c8 3d
       0.025671335 -0.057100188 0.14663894 0.09796546
000230 17 6c 5f bd f7 a0 0a 3e f7 a8 82 bd f7 9e c1 bd
       -0.054546442 0.13537966 -0.06379884 -0.09454148
000240 3a c0 fb 3d f6 5b a9 bc 57 17 3c bd ed 03 ec 3d
       0.12292524 -0.020673733 -0.045920696 0.11524186
000250 b5 64 0e 3e 8f 4c 44 3d d1 5b 14 bc b8 8e b2 bd
       0.13905604 0.047924574 -0.009055094 -0.08718628
000260 90 10 9a bd 56 eb 10 3e ff af 13 3e b2 c3 9f 3c
       -0.0752269 0.14152274 0.14422606 0.019502494
000270 d8 70 4e be bb 3e 15 3c 81 d3 05 be 9b f5 4f 3c
       -0.20160234 0.009109194 -0.13068964 0.012692834
000280 43 7d 56 bc 7c 00 e2 bd f1 2e 3e bc 8b 30 58 be
       -0.013091388 -0.11035249 -0.011607871 -0.21112268
000290 21 7d 7b 3d a3 9f 6d bd 25 ea df bd bf 22 ac 3d
       0.06139863 -0.05801357 -0.109333314 0.08405065
0002a0 05 14 a1 3d b7 1c bf 3d eb 19 ce 3d b0 55 5f bd
       0.078651465 0.09331649 0.10063537 -0.054525077
0002b0 a4 14 1d 3e 7d 12 b5 3d 41 5d da 3c 5e ee 16 bd
       0.15339905 0.08841417 0.026655795 -0.03684842
0002c0 b1 0c 84 b8 f4 d0 3a 3d 09 8c 68 bc 07 6a 4f 3d
       -6.2966144e-05 0.04560943 -0.014193543 0.050638225
0002d0 4f c5 dc 3d 97 ab 88 3d dc 6a 0e 3e b5 54 80 3d
       0.10779821 0.06673353 0.13907951 0.062661566
0002e0 88 5e 97 3d 59 45 e7 3d 29 50 96 3d 3e f9 6d 3d
       0.07391077 0.11292524 0.07339508 0.058099024
0002f0 91 5f a9 3d 19 a7 b7 3d d1 03 f4 bd 04 f4 4e 3d
       0.08270181 0.08967418 -0.119147904 0.05052568
000300 76 6a a2 3c 1e 63 16 be d5 c3 25 3d f5 e8 fc bd
       0.019826155 -0.14686248 0.040469963 -0.123491205
000310 0c 70 fb 3d a1 fe c5 3d 05 0e 98 3b 6c 9b 1d bd
       0.122772306 0.09667707 0.004640343 -0.0384783
000320 57 58 81 be 44 7a 5f 3d 40 c2 d9 3a 6c 06 40 bd
       -0.2526271 0.05455996 0.0016613677 -0.046881124
000330 b1 ac bc bd 9c 3e 8c bb f9 cc ab bd e9 de cd 3d
       -0.09212626 -0.0042799246 -0.08388705 0.10052282
000340 d6 db 9f 3d 3d 41 64 3c 56 86 fc 3c 71 8c 7c 3d
       0.07805602 0.01393157 0.030825775 0.061657373
000350 2f 5d 16 be 85 dd 7f be de 6e 22 be 6c cd 9d 3d
       -0.14683984 -0.24986847 -0.15862605 0.07705197
000360 5d e5 ab 3c 5e 93 94 bd 3f 46 58 bc b8 5f 03 be
       0.020983392 -0.072546706 -0.013200342 -0.12829483
000370 a9 cb cc bd 6f 61 af bd 6a d7 1a bd c1 be b0 3d
       -0.099997826 -0.08563506 -0.03780309 0.086301334
000380 cf 1d c9 3d cc a8 3b 3d 3b a5 89 bd 80 12 f1 bd
       0.09820139 0.045815274 -0.06720968 -0.11771107
000390 c0 80 a7 3d 7d 66 bc bd 5d 8d 61 bc 4d fd 86 bd
       0.08178854 -0.091992356 -0.013766614 -0.06591282
0003a0 33 4d 83 3d 80 4c 2b 3e cc 54 b6 3c 4d 7c 1d bd
       0.06411209 0.16728401 0.022257231 -0.03844862
0003b0 b2 2d 56 3c 98 c9 e3 bd ab 5a a6 bb 71 c3 e6 3d
       0.013072418 -0.11122435 -0.0050767264 0.11267746
0003c0 49 14 4c bd 2a 0e b4 3c 38 42 90 bd be 9f b3 3d
       -0.049824033 0.02197941 -0.0704388 0.08770703
0003d0 43 79 05 3e c7 e5 87 bd 6e 7d 2e 3d 53 89 ed bd
       0.13034539 -0.066356234 0.042600088 -0.11598458
0003e0 5e 85 af 3c 42 d1 5d bd 43 60 b0 3d 60 58 ab 3d
       0.0214259 -0.054154642 0.086121105 0.083664656
0003f0 ff 93 82 3c 1c a0 cd bd 04 19 38 be 9e e9 f3 3d
       0.01593971 -0.10040304 -0.17978293 0.11909793

network_body._body_endoder.seq_layers.0.bias f4 [128]
000000 db 32 b2 3c af 02 aa bb c7 b5 53 bd b2 14 62 bc
       0.021752765 -0.005188308 -0.05168703 -0.013798879
000010 21 3e e3 3c 14 5c 51 bc c3 ff f7 bb bb 1c f4 ba
       0.027739586 -0.012778301 -0.007568331 -0.0018624285
000020 42 a0 17 bb da 38 88 bc fa 7d 1b bd f1 9e 8e bc
       -0.0023136293 -0.016628671 -0.037961937 -0.017409774
000030 61 0f 0a 3d 55 bb 06 bc b5 93 6e bb 09 37 f3 3b
       0.033706073 -0.008223374 -0.0036403958 0.007422332
000040 74 6e 8c 3c 90 85 63 3c db 30 1e bd 42 86 24 bd
       0.017142512 0.013886824 -0.03862081 -0.0401671
000050 67 3c 6e bb 9e b9 39 bd 77 05 a9 bc 1f ba 19 3a
       -0.003635192 -0.045343034 -0.020632489 0.0005864221
000060 5a 99 b0 3b 46 b4 44 3d 56 70 10 bc 3a 3b 78 3c
       0.0053893747 0.048023485 -0.0088158455 0.015150839
000070 07 6e b4 bb f5 e2 9c bc 84 72 31 3c e1 b4 6a bc
       -0.0055062803 -0.01915119 0.010830525 -0.014325351
000080 e3 1e 0f 3c 21 ca 76 bd 6c db 3c bd f1 ea 87 bc
       0.008735391 -0.06025136 -0.046107695 -0.016591521
000090 5e e7 85 bc ef 1e f5 3a a3 94 97 ba 4a 99 20 bc
       -0.016345676 0.0018701236 -0.0011564683 -0.009802172
0000a0 56 a4 44 bd a2 d8 9a 3b 01 b6 45 3c e6 c0 8c 3c
       -0.048008285 0.0047255317 0.012067319 0.017181825
0000b0 43 e9 13 bc c7 50 8e bc 16 29 81 3c 43 63 4c bc
       -0.009027782 -0.017372502 0.015766662 -0.012474838
0000c0 6d a9 b2 3c 8e 4d b7 3c 33 0a 17 bc 70 c6 e3 3b
       0.021809304 0.022375848 -0.00921874 0.006951146
0000d0 02 34 ec bc 9c 87 1a bc 39 9c fe bb fb 54 da bc
       -0.028833393 -0.009431746 -0.007770088 -0.02665185
0000e0 58 5c 47 3c 0a 71 51 3b f0 d7 93 3c 88 0b 57 ba
       0.012168013 0.0031958246 0.018047303 -0.00082033174
0000f0 c6 a2 6d 3c 65 81 99 bc 60 2b 19 bc 44 ae 36 bc
       0.01450414 -0.018738458 -0.00934872 -0.011149947
000100 29 ca 60 3c 6b c8 a7 bc ae 9a ec bb 50 a8 59 bd
       0.013720074 -0.020481309 -0.0072205877 -0.05313903
000110 7e 46 0f bd 02 73 c3 bb e8 89 ae bc a9 1e fd bc
       -0.034979336 -0.0059646377 -0.021305993 -0.030898409
000120 5b be bd bc 0d a4 22 bb 18 38 de 3b 8c 8a cd 3b
       -0.023162058 -0.002481702 0.0067815892 0.0062726196
000130 4a 1e 1c bd 5b a2 44 ba 06 71 54 3c e4 92 3f 3c
       -0.038114823 -0.00075009995 0.0129664 0.011692736
000140 dc cd 35 bd d8 0b 8f bc cb fc ec 3a ae 30 1a 3c
       -0.044385776 -0.017461702 0.0018080709 0.00941102
000150 b1 2c 80 3c 4e 58 65 3c 73 2e 01 bc 76 a0 bc 3b
       0.01564631 0.013998104 -0.0078846095 0.005756433
000160 2e 86 75 bc fd a6 d9 bc 27 2b 3b 3b 0a 0a 88 3c
       -0.014985604 -0.026568884 0.0028559656 0.01660635
000170 0a 3f ba 3c c2 a6 14 3c a0 b8 67 bd c3 6f 1f bc
       0.022735137 0.009072961 -0.056572556 -0.009731236
000180 a1 86 45 3c 94 f1 9f bc 5e 5f 47 3a bc 7c 09 bc
       0.012056024 -0.019524373 0.00076054584 -0.008391555
000190 55 7c 9d 3c 42 58 03 bd e2 75 92 bb 70 51 be 3a
       0.019224325 -0.03206659 -0.004469619 0.001452012
0001a0 6d d4 c7 3b 56 9c b2 bc 98 2a 97 bc ef a6 06 3c
       0.006098321 -0.021803062 -0.018452927 0.008218511
0001b0 96 23 b6 3c 52 4f 5a bc 94 88 17 bc 66 c7 ff 3a
       0.022233766 -0.0133245755 -0.009248871 0.0019514381
0001c0 56 c1 37 bd ff 94 bb 3c 27 f5 da 3c 7b 7f bf ba
       -0.044862114 0.022898195 0.026728226 -0.0014610136
0001d0 a4 bb 0d 3c e7 8f 29 bc 96 2b b8 bc 68 0c 24 3d
       0.008650694 -0.01034925 -0.02248172 0.040050894
0001e0 4b ab a3 bc bb 13 a0 bc 17 ee 24 bc fa 1d 03 3d
       -0.01997914 -0.019540658 -0.010066531 0.03201101
0001f0 77 4a d7 3b e8 ba 92 bb 74 67 16 3c 41 a6 6c bc
       0.006570156 -0.0044778474 0.009179939 -0.014443935

network_body._body_endoder.seq_layers.2.weight f4 [128, 128]
000000 dc d8 0e be 0a 3f 92 bd 48 55 1c 3b eb 24 17 be
       -0.13949913 -0.0714093 0.0023854543 -0.14760177
000010 3a da 83 bd 3a 88 34 3d fb dd 39 bc 55 fe 24 bd
       -0.06438108 0.04407523 -0.011344428 -0.040281612
000020 9c 91 5a 3d 8f e5 53 be 37 71 43 3d 76 f6 0c be
       0.05336152 -0.20693038 0.047715392 -0.13765892
000030 47 ff 3e bd 98 de 99 3d da 66 47 be 55 f1 a2 3c
       -0.04663017 0.075131595 -0.19472829 0.019890467
000040 1e a9 4c 3d 3c 3a 9a bd cd b3 05 be 4e cf 30 be
       0.04996597 -0.075306386 -0.1305687 -0.1726658
000050 a7 fb 13 3d fb 02 a5 bc 84 20 f3 3c 3a 61 5f 3d
       0.036128666 -0.020143023 0.02967859 0.05453608
000060 c9 3d 15 be 7a 03 bf bd 20 46 7a bd 18 05 81 bd
       -0.1457435 -0.09326835 -0.061102033 -0.062998
000070 97 4b b5 3c bd 98 f9 3d a0 4e e5 bc 3e 1f 3c bd
       0.02213077 0.12187336 -0.027991593 -0.045928232
000080 b6 86 a3 bd cb b0 39 be f6 e6 72 bb e5 49 ea bd
       -0.079846784 -0.18133847 -0.0037063933 -0.114398755
000090 b7 0d 0d 3d 4d 80 86 3c 49 1e 6e bd d1 f1 87 3c
       0.034436908 0.0164186 -0.05813435 0.0165948
0000a0 04 49 aa bc 1d 62 e3 3b 5b 19 d7 bd ca 06 1e 3e
       -0.02078677 0.0069391862 -0.10502883 0.15432277
0000b0 90 de 35 bd a6 be ac 3c 07 21 2e bc 15 32 ac bd
       -0.044401705 0.021087002 -0.0106279915 -0.0840799
0000c0 c4 b7 49 bc f4 fe 6d bd 94 d6 5e bd 1d e8 ae 3c
       -0.01231188 -0.05810447 -0.054403856 0.021350915
0000d0 35 9e 41 be 68 c0 6a bd 58 f4 97 bd 8c 56 f0 bd
       -0.18908007 -0.0573124 -0.07419652 -0.117352575
0000e0 b7 d4 34 3d 40 b3 d1 3c 57 19 be 3d 41 50 d5 3d
       0.044148173 0.025598168 0.09282177 0.10415698
0000f0 b5 8a 36 3d 4e d7 58 3d c8 95 b4 bd 4f 91 3b be
       0.044565875 0.052939706 -0.08817631 -0.1831715
000100 a6 87 fa bd 7e 06 67 3d f7 4d 29 3e bb 44 a1 3b
       -0.12232904 0.056402676 0.16533647 0.0049215234
000110 47 1d 2c bd b4 e8 db bd c0 85 11 3c de 30 ed bd
       -0.04202011 -0.10737744 0.008881986 -0.11581586
000120 64 1c 47 3e 2f 22 cc 3b 5b 68 9a 3d 62 15 81 bd
       0.19444424 0.006229661 0.075394355 -0.063029066
000130 0d 98 37 3d 23 48 bb bd 70 6f 19 be f7 c3 85 3d
       0.04482274 -0.09144618 -0.14983916 0.06531518
000140 16 3f c7 bd 91 53 03 be 15 74 40 be 5e ca 2c bd
       -0.097288296 -0.12824847 -0.18794282 -0.04218518
000150 99 48 d1 bc ce 07 bc bd 1a c8 51 3d 20 e4 ba 3c
       -0.025547313 -0.09181176 0.051216222 0.022813857
000160 46 45 c2 bd f3 90 1c 3d d3 87 27 be 6b b2 2c 3d
       -0.09485869 0.03822417 -0.16360407 0.04216234
000170 b4 45 d2 bd a6 af 08 3e 61 0f 04 3d eb 54 05 bd
       -0.10267201 0.13348255 0.03224123 -0.032551687
000180 12 67 25 bd c8 b7 51 bd aa 7d 7f 3c 40 2b 8e bb
       -0.0403815 -0.051200658 0.0155939255 -0.004338652
000190 03 49 b0 bd 61 5a 46 3d 35 19 55 3d 18 18 8f 3d
       -0.08607676 0.048426036 0.052025992 0.069870174
0001a0 91 2e 9e 3d 11 a0 f7 3d 15 73 10 3c a1 8b c0 bd
       0.077237256 0.12091077 0.0088165 -0.09401632
0001b0 4a b5 84 bb 86 c4 3e bc 47 be 91 bc ff a5 4c be
       -0.0040499317 -0.0116435345 -0.017790927 -0.19985197
0001c0 6c 44 d5 bd b8 bb 48 bd 4a 45 34 bc ee eb f3 bc
       -0.10413441 -0.049007148 -0.011002848 -0.029775586
0001d0 da ef 1f 3d f8 a9 59 bd 0e 3e 35 bc 39 68 c0 bd
       0.0390471 -0.05314061 -0.011062158 -0.09394879
0001e0 ba df 28 bd 2b 59 da bd 84 c1 05 3d 66 d0 d1 3d
       -0.041228987 -0.10661539 0.032655254 0.10244827
0001f0 e2 1f 92 3d a0 c7 98 bd d1 24 85 3d 9a b3 8c bd
       0.071349874 -0.074599504 0.06501163 -0.06870194
000200 f7 e8 5d bd d4 9d 18 bd 87 62 91 bd a0 d4 24 3e
       -0.05417725 -0.03725989 -0.07098871 0.16096735
000210 5a 4f e7 3d e8 a0 e2 3d e0 1b 21 bd 9c a3 c8 3d
       0.11294432 0.11065847 -0.039333224 0.09796831
000220 df dd 80 3d 9b 88 1e 3e 20 54 b6 3d a8 39 c8 3d
       0.062923186 0.15481798 0.08902764 0.09776622
000230 51 d7 25 be 5e 80 1f be bc 8d 1f 3e af 6e 9c 3d
       -0.16195418 -0.15576312 0.15581411 0.07638299
000240 ca 0c 1b 3d 00 57 9a 3d bc 77 a4 bd 95 01 45 3d
       0.037853993 0.07536125 -0.0803065 0.048097212
000250 2a cb b3 bc 97 ae f6 3d ef 6e 98 bb 60 6f 90 bd
       -0.021947462 0.12045019 -0.004651896 -0.07052493
000260 c5 43 13 3d cf ad 9e 3c 2a 1e 1a 3e d1 85 e5 bc
       0.035953302 0.019369988 0.15050569 -0.02801791
000270 cf 54 37 3d 4d 7e 96 3e ee fe b1 bd 9b ef 8b 3d
       0.044758614 0.29393235 -0.08691202 0.068328105
000280 ad 62 58 3d ba 63 b0 bd 3f 3a 39 bd 61 eb 73 bd
       0.05282848 -0.08612771 -0.045221563 -0.059550647
000290 94 d2 16 be ba 53 52 bd 6a b0 c0 3d 20 53 de bd
       -0.14728767 -0.05134938 0.09408648 -0.108556986
0002a0 0a d9 11 3c 8b 5c f1 bc 0a 2d 09 be b8 49 08 bd
       0.008901844 -0.029463073 -0.13396087 -0.03327343
0002b0 b9 b2 a0 3d 93 9f 91 bd cf e6 13 3e 9a 1e c0 3c
       0.07846589 -0.071105145 0.14443515 0.023452092
0002c0 1d 51 e0 3c f0 e0 21 be 89 0a b8 3c 35 04 a6 bd
       0.027382428 -0.15808463 0.022465961 -0.08106271
0002d0 9e 27 bb 3c 9b fc c8 bd de f2 31 bd 09 5a a4 3b
       0.02284604 -0.09813806 -0.043444507 0.005015616
0002e0 f0 29 a0 bb e9 3d fc bd 66 6f 00 3e a8 ba 31 3d
       -0.004887812 -0.12316496 0.12542495 0.0433909
0002f0 9a 08 d6 3d 84 97 bd bd b6 18 ae 3d 21 ed 04 be
       0.10450859 -0.09257415 0.08500807 -0.12981082
000300 f2 a8 b0 3b 2a 26 d0 3d 39 f1 f1 3d 85 40 51 3d
       0.0053912336 0.10163529 0.11813588 0.05108692
000310 e5 2e a1 3e 4b de 32 bc 92 1c eb 3c 7e f2 b3 bd
       0.3148109 -0.010917257 0.028700147 -0.08786486
000320 53 6a ef bd 99 1b 4b bd c6 66 31 bc a2 81 3f 3c
       -0.116902016 -0.049586866 -0.010827726 0.011688622
000330 da bd 15 bd b0 3a 57 bd 42 83 90 bd 3f 40 ef 3c
       -0.03655801 -0.052546203 -0.070562854 0.02920544
000340 55 02 32 bd 6f e3 fb bd 3f 12 65 bc 3c d2 1b 3c
       -0.043459255 -0.12299239 -0.013981401 0.009510573
000350 50 73 83 be 38 0a 68 bd 22 2c 0d 3d 21 67 95 3d
       -0.25673914 -0.05665037 0.034465916 0.07295061
000360 06 75 f0 3c 10 bf 40 bd af 18 24 bd 61 89 97 3d
       0.029352676 -0.04705721 -0.040062603 0.0739925
000370 62 bf f9 bc e2 48 df 3d a2 df 4d 3d f2 9b 41 be
       -0.030486766 0.10902573 0.0502621 -0.18907145
000380 46 69 a9 3d 2e 28 31 3d 9e a9 fe 3c 4c 82 94 3d
       0.082720324 0.04325121 0.03108674 0.07251415
000390 53 58 09 bd a5 f3 c5 3d 5b ab d1 3c ca 09 1c bd
       -0.0335315 0.09665612 0.025594404 -0.038095273
0003a0 be d6 47 3d 16 f7 89 3d 8f a1 f8 bd 67 68 61 bc
       0.04878878 0.06736581 -0.1214019 -0.013757802
0003b0 49 f3 42 3d 76 7d 07 3e 4a 21 d2 3c 7b 92 31 be
       0.047595296 0.13231453 0.02565064 -0.17341034
0003c0 ce 3c a0 bc 88 7a f3 3d a0 ef 67 3e 2c 06 e4 3d
       -0.019560244 0.11888605 0.22650003 0.1113399
0003d0 6d 63 12 3e ed bc 57 bd 9a 9e 50 be 6a 93 e1 3d
       0.1429574 -0.052670408 -0.20373002 0.11014445
0003e0 7f 85 84 3d 04 a8 02 bd 8d 27 a1 3d ae 9f b1 bd
       0.06470775 -0.031898513 0.07868872 -0.086730346
0003f0 4a b7 eb 3d 8a 91 11 be 24 7c e2 bc 24 91 63 3d
       0.11509569 -0.14215675 -0.027647085 0.05555834

network_body._body_endoder.seq_layers.2.bias f4 [128]
000000 15 49 db bc 4f 9a 67 bc 6c 23 64 bc da a0 33 3a
       -0.026768247 -0.014135911 -0.013924461 0.0006852277
000010 b1 d1 f0 bb 5a 04 dd 3b 1e de ad bb ce a7 55 bc
       -0.007349216 0.0067449035 -0.0053060194 -0.013040496
000020 56 1f 7a bc 7e e1 b4 3c 2f 21 bd 3b be 7d 8f 3d
       -0.01526626 0.02208018 0.005771778 0.07006405
000030 26 16 3c 3c c2 31 02 bd f7 7d b4 bc 7e b0 57 bc
       0.01147989 -0.031785734 -0.022032721 -0.013164638
000040 2d 6b e2 bb c4 f6 97 bc a2 05 7a bc 18 6e 1d bd
       -0.006909749 -0.018550284 -0.015260132 -0.03843507
000050 0f b2 89 bc 01 bf 6a bc 54 b3 d5 bc 59 63 56 3c
       -0.016808538 -0.014327765 -0.026086487 0.01308521
000060 ca d1 19 bd a8 ef 1c 3c 7d 06 1c bd d5 3d b2 3b
       -0.037553586 0.009578623 -0.038092125 0.0054395
000070 4a ae 57 3d 53 c5 a7 bc 62 74 11 3d 2f 40 19 bd
       0.05265645 -0.020479834 0.035511382 -0.037414726
000080 22 2d 1d 3d 23 92 95 bd 96 64 44 bc 04 cf 9d 3c
       0.03837312 -0.07303264 -0.011986872 0.019263752
000090 ca 85 89 3a 45 ec 4f bc a2 2a a3 3c a0 b4 81 bb
       0.0010492143 -0.012690608 0.01991779 -0.0039582998
0000a0 f3 7f 55 bc d8 3a d1 3c 7d cd f6 3b ef 87 32 bc
       -0.013030994 0.025540754 0.0075318203 -0.010896667
0000b0 6b 74 2c bb b4 46 28 bc 8e 6c 7e 3c 49 38 4e bd
       -0.0026314508 -0.010270763 0.015528811 -0.050346646
0000c0 1c de 85 3b 45 12 40 bc 15 1e 92 bc 15 aa 20 bd
       0.0040853154 -0.011723106 -0.01783661 -0.039224703
0000d0 fc ee d1 bc 0a a8 8a 3b 72 31 ff 3b 48 7f 2d 3c
       -0.025626652 0.0042314576 0.0077878768 0.010589428
0000e0 48 a8 89 3c 81 f7 b5 3c 4c 97 74 bd 83 ea 35 bc
       0.016803876 0.022212746 -0.0597146 -0.011103275
0000f0 6c 24 1d bc d0 39 44 bd 53 31 b0 3c 01 16 a0 bc
       -0.009591203 -0.047906697 0.021507895 -0.019541742
000100 58 e0 8d 3c c7 8c 9a bc 2f 46 85 3c e6 be 92 3c
       0.01731889 -0.018865956 0.016268818 0.017913293
000110 8d 36 e3 bc 2e 90 24 3d 46 80 51 3c 61 a9 11 bb
       -0.027735973 0.040176563 0.01278693 -0.0022226202
000120 6f 50 a3 3b bb bd 22 bc f4 a8 a6 ba 39 c9 48 3c
       0.0049839537 -0.009932931 -0.0012715147 0.0122550065
000130 cc 3a aa bc d1 e7 c9 3c 69 1b bb 3b 35 83 78 3d
       -0.02077999 0.024646671 0.0057100547 0.060672004
000140 9f a1 a7 3b 92 fd 9d bb 02 f3 82 3c f3 d1 29 bd
       0.0051157023 -0.0048214877 0.015985016 -0.04145999
000150 a7 43 c4 bb 77 9f 0a bd 08 32 e6 3c 8d ee 5e bc
       -0.00598951 -0.033843484 0.028100029 -0.01360668
000160 22 b0 e4 bb e6 3e 53 3c 47 a7 a9 ba dc f7 07 bb
       -0.0069790045 0.012893414 -0.0012943529 -0.00207471
000170 ad 6c d2 bb be 21 80 bc 88 ec 20 3a 17 49 98 bc
       -0.0064216466 -0.01564109 0.00061387615 -0.01858954
000180 46 29 ea bb 88 84 2d 3c c3 9a b5 bc 2d e0 0d 3d
       -0.0071460335 0.01059068 -0.022168523 0.03463762
000190 d1 03 ad 3c 62 c1 45 bd 01 d3 8f 3d 58 74 58 3c
       0.021119984 -0.048280127 0.07022668 0.013211332
0001a0 0b 76 1a bc 29 e9 bd 3b ba 6f 2d bc d7 51 d9 ba
       -0.009427558 0.005795617 -0.01058572 -0.0016580176
0001b0 89 05 1f bd 7a ea b5 3c 51 8e 3b bc ea 0c 3c 3c
       -0.038823638 0.022206534 -0.011447505 0.011477688
0001c0 b7 42 75 bc e9 c0 9b bd 66 b1 5f bd db 79 17 3d
       -0.014969519 -0.07605154 -0.05461254 0.036981445
0001d0 04 f4 ba bb ee f6 a4 ba 4c 8b e0 ba 74 d5 59 bd
       -0.0057053585 -0.0012585798 -0.0017131357 -0.05318208
0001e0 ea 39 a0 3c 7f f1 53 bb 53 39 07 bd b0 bc 16 3c
       0.019558866 -0.0032339988 -0.033013653 0.00920026
0001f0 3f a4 48 bc 45 a8 b9 3b 70 4d ec bb 6d d2 c0 3c
       -0.012246191 0.0056658112 -0.0072113797 0.023537839

action_model._continuous_distribution.log_sigma f4 [1, 2]
000000 73 13 b0 bf d3 6f 9b bf
       -1.3755935 -1.2143501
