clash-of-dawn-main/Assets/Scripts/AI/Brains/WeaponBehavior.onnx (onnx, 501255 bytes, 21 tensors)

network_body.observation_encoder.processors.0.self_ent_encoder.seq_layers.0.bias f4 [128]
000000 4f fd 4c 3c a3 d7 2d bb 2f 42 18 bc 1f 9a 3f bb
       0.012511565 -0.0026526235 -0.009293123 -0.002923615
000010 e1 60 21 bc e1 f4 1f bc a6 3b 8a bc f6 aa 5b 3c
       -0.009849758 -0.0097629735 -0.016874146 0.0134074595
000020 c0 d5 2c 3b f3 e5 74 ba 4b b4 ac bb 9e 40 be bc
       0.0026372522 -0.00093421264 -0.005270516 -0.023224171
000030 b9 94 da bc 70 95 04 3c 1d c3 e5 bb a1 28 21 3c
       -0.026682245 0.008092269 -0.0070117847 0.009836347
000040 d4 bf 36 3c 5f 9a 89 3c 67 57 1c bc 4b c6 06 3c
       0.011154134 0.016797243 -0.009542323 0.008225988
000050 2f f8 96 3c 9e 2d b2 bb 69 11 0d bc 53 f9 4d 3c
       0.01842889 -0.005437567 -0.008610108 0.012571651
000060 dd dd 34 ba 0e 8e 25 3c f9 c4 a2 3b a9 86 0f bc
       -0.0006899515 0.010104669 0.0049673286 -0.008760133
000070 6a 4a 77 3c b3 db b2 bb 64 94 19 bb e1 dc 97 bc
       0.015093425 -0.005458319 -0.0023434395 -0.01853794
000080 fd 9e 26 ba 4b 81 48 3b 3d 27 94 3b 1a 8c c0 bc
       -0.00063560886 0.0030594643 0.004521279 -0.023504306
000090 11 bb 64 bd 70 38 43 bc 72 07 83 bc e2 0a 40 bc
       -0.055842463 -0.011915311 -0.015994761 -0.011721345
0000a0 32 cb 39 bc 67 f6 31 bc f8 54 cf 3b 96 80 18 bb
       -0.011339949 -0.01086197 0.0063272677 -0.0023270003
0000b0 90 19 24 ba 0d 48 ce 3b 46 63 4f 3b c4 00 b9 3b
       -0.00062599126 0.00629521 0.0031644865 0.005645843
0000c0 15 ac 5d 3c d3 5b 26 3c 34 26 02 bc d9 e6 0d 3d
       0.013529797 0.010153729 -0.007943679 0.03464398
0000d0 e5 2c eb 3c 01 f1 f0 ba cd b6 e7 bc 7a 52 16 bd
       0.02870793 -0.0018382372 -0.028285408 -0.03669975
0000e0 ee 24 18 bb 39 ae 99 bc d3 36 bf ba 2a ef 42 3c
       -0.0023215371 -0.018759834 -0.0014588482 0.0118978415
0000f0 2e de ff 3a 15 eb 01 3c 7c e4 30 3b d1 42 17 3c
       0.0019521171 0.007929583 0.0026991656 0.009232239
000100 72 6e c6 bb 0b d4 c4 3a d3 f8 98 3c 8b 5e 6e bb
       -0.0060556466 0.0015016807 0.018673336 -0.003637227
000110 f7 7b 97 3b a0 33 d7 3a d7 19 fe 3a 73 35 b7 3c
       0.004622932 0.0016418584 0.0019386363 0.022364354
000120 63 ec 3c 3c d0 c6 ce 3b 40 e8 07 bc 29 0e 7c 3b
       0.011530968 0.0063103214 -0.008295119 0.0038460589
000130 ab 49 1e 3c 1d 84 1a 3c 88 d4 4a bc 2f be 78 3c
       0.0096611185 0.009430912 -0.012379773 0.015182062
000140 67 a4 bc bb 8d b1 52 bc c9 82 6a bc fb 70 94 3b
       -0.005756903 -0.012859714 -0.014313408 0.00453007
000150 9b 0e 24 bc 0e a8 72 3c af e9 39 bc f9 88 97 bc
       -0.010013248 0.014810575 -0.011347218 -0.01849793
000160 c0 60 4c ba 73 f4 d9 3b 15 f7 02 3c a9 89 73 bb
       -0.00077963993 0.006651455 0.007993479 -0.003716091
000170 71 60 cd bb c0 a5 20 3c 91 e1 aa bc a0 d7 db 3c
       -0.0062676 0.009805143 -0.020859512 0.026836216
000180 77 49 af bb 89 ff 7f 3c c2 12 ac bc c4 e4 62 3c
       -0.005349334 0.015624889 -0.021005038 0.013848487
000190 db f1 18 3b ce fe be bb a4 e1 5b 3b ca b2 84 3c
       0.0023337516 -0.005828715 0.003355124 0.016198535
0001a0 54 f4 44 3c 98 0c 03 bc fb 01 d4 b9 18 58 e6 3c
       0.012021143 -0.007998608 -0.00040437267 0.028118178
0001b0 ff e7 e9 bb 33 8e 47 3c fb 59 84 3c ac 54 b8 ba
       -0.007138252 0.012179899 0.016156187 -0.001406332
0001c0 79 b2 32 3b ba 68 1c bc e0 b3 06 3c 78 7f 61 bb
       0.0027267023 -0.009546453 0.0082215965 -0.0034408253
0001d0 79 96 13 3c 13 1b 81 b9 e1 be c0 bb 85 02 90 bb
       0.009008043 -0.0002462497 -0.0058821295 -0.0043948316
0001e0 d5 28 a2 3b d9 2d 65 3c 29 4c df 3a 6c 7f 9c ba
       0.004948715 0.013987982 0.0017036247 -0.001193983
0001f0 4a 1b 2a 3c 1c 6e 0a bc 98 f3 2e 3c b9 0c 8d bc
       0.010382483 -0.008449104 0.010678194 -0.01721798

network_body.observation_encoder.rsa.fc_q.bias f4 [128]
000000 52 b0 d3 bc fe fc fd 3c 58 2c ed 3c 93 9e 90 3d
       -0.025840912 0.031004425 0.028951809 0.07061496
000010 c2 16 15 bd bd 24 94 bc 84 ea 04 3c a5 97 29 3d
       -0.036398657 -0.018083924 0.0081125535 0.041404385
000020 83 55 1c 3d cb 2a 55 bd fc c6 08 bd 92 bf 10 bc
       0.038167488 -0.052042764 -0.03339289 -0.008834736
000030 ff 0c b3 3c 98 41 33 3c 08 c7 97 3d 5c 67 3f bd
       0.021856783 0.010940932 0.07411009 -0.04672943
000040 71 e1 c7 bc 23 cc 0a bd 0b 58 02 bd 30 af a2 3c
       -0.024399491 -0.033886086 -0.031822246 0.019858927
000050 a7 ed 80 3d 36 f4 da 3c 47 db 0c bd f3 a7 5e bd
       0.062953286 0.026727777 -0.034388807 -0.054359388
000060 c3 c3 7e 3d 32 1e dd bc b9 4d a4 3d 64 0a 1e bd
       0.06219841 -0.026991937 0.08022637 -0.038584128
000070 0f dc c8 bc a2 d7 24 3d 6c ae 19 bd 7b 68 15 3b
       -0.024518995 0.040244706 -0.037519857 0.002279787
000080 e1 b5 ef bd 1c b0 67 3d 3f 7d 43 be 5e d3 1a be
       -0.117046125 0.056564435 -0.19090746 -0.15119693
000090 1b f4 84 bc 9c 1c 21 be 7e dc 1a 3e 7b b4 26 be
       -0.01622968 -0.1573357 0.15123174 -0.16279785
0000a0 41 74 ab 3d 1e 23 1b be 67 c7 13 3e 54 4f 0d 3e
       0.08371783 -0.15150115 0.14431535 0.13799793
0000b0 30 e3 2c be b3 b0 74 bd d9 37 15 be 6f a6 66 3d
       -0.1688354 -0.059738826 -0.14572085 0.056311067
0000c0 39 9d 73 bd 3b 13 3b bd 35 dd 26 3e a2 99 80 bd
       -0.05947611 -0.045672636 0.16295321 -0.06279303
0000d0 e1 ce 14 be 08 58 19 be 39 47 d5 bd fd db 8d bd
       -0.14532043 -0.14974988 -0.10413975 -0.06926725
0000e0 27 87 c2 bd 0c c6 6a 3d 48 f7 34 be 55 37 a1 3c
       -0.094984345 0.05731778 -0.17672455 0.019679705
0000f0 a2 d0 1e 3e e5 a6 48 3e f0 e7 31 3d 4d f5 19 bd
       0.15509275 0.19594915 0.043434083 -0.037587453
000100 20 16 e4 bc 12 cf 4d 3d 9c 78 b0 bc 1b 56 f3 3d
       -0.027842581 0.050246306 -0.021541886 0.11881658
000110 c1 fa 1f 3d 1e 83 65 bd 26 20 48 3d 95 e0 14 3c
       0.039057497 -0.056033246 0.048858784 0.009086748
000120 7c 87 f0 3c 89 7b 28 bd 40 c8 7b 3c 1e c3 0a bc
       0.029361479 -0.041133437 0.015367568 -0.008469371
000130 19 00 be bc 1f e2 71 bd ae f9 04 3d d9 23 0e 3d
       -0.023193406 -0.059053537 0.032464676 0.034702156
000140 dc f3 38 3d ab 71 db 3c d9 8e 55 3d 76 f8 5a bc
       0.045154437 0.0267876 0.052138183 -0.013364902
000150 e7 7c 0e bc 78 62 7b 3d 1d 2e fa 3b d0 fd 13 3d
       -0.008696771 0.061373204 0.0076348917 0.036130726
000160 ef 7e 3a 3b c2 d4 24 3c 2c 16 f4 3d 92 e2 58 bd
       0.0028457006 0.010060491 0.119182914 -0.05295045
000170 8f 04 8b 3d b6 7a 9e bd bc e3 03 bc 10 1e 08 bd
       0.06787979 -0.07738249 -0.008049902 -0.033231795
000180 69 e8 05 3d c0 38 1d 3e d3 30 0b be 32 63 19 be
       0.032692347 0.1535368 -0.13592844 -0.14979246
000190 a4 bf 18 3e 6f 82 31 be 3c 43 e4 3b 73 ba 21 be
       0.14916855 -0.17334913 0.006966023 -0.15793781
0001a0 e2 58 8d bc bd e6 04 3e 95 1a 29 be e1 b6 0a be
       -0.017254297 0.12978645 -0.16514046 -0.13546325
0001b0 2f 51 26 bd 0d c6 0b be 87 13 7d bc da 61 d5 bd
       -0.040604766 -0.13649769 -0.01544655 -0.10419054
0001c0 31 fb d7 3d 35 02 e6 bd b4 92 1f 3e fd 83 17 be
       0.10545958 -0.1123089 0.15583307 -0.14796443
0001d0 82 b6 31 3e cb 66 f7 bd e9 8c 2b be fb ff 2b 3e
       0.17354777 -0.12080153 -0.16752972 0.16796868
0001e0 b6 c3 3a 3e b8 98 71 3b 24 1d e4 bb 58 3f ad 3d
       0.1823872 0.003686471 -0.0069614816 0.084593475
0001f0 48 d2 1f be af 7f 38 be 01 d1 a2 bd d7 0c 75 3d
       -0.1560756 -0.18017457 -0.079500206 0.0598267

network_body.observation_encoder.rsa.fc_k.bias f4 [128]
000000 7c 02 3a 3a b4 c1 c4 b7 83 4b 8b 39 f9 19 5c b9
       0.0007095707 -2.345522e-05 0.00026568407 -0.0002099051
000010 4b 5a 77 b8 5f 0d a5 39 06 37 dd 39 4c 52 dd b8
       -5.897348e-05 0.00031481215 0.000421934 -0.0001055343
000020 8b a7 01 3a ec 6a 8a 39 8c 35 f9 39 56 d8 d8 b9
       0.00049459253 0.00026401074 0.00047532876 -0.00041359913
000030 83 43 c3 b9 d1 c9 4c 39 34 24 a3 38 1e 3a 56 b7
       -0.00037243598 0.00019530139 7.779189e-05 -1.2768925e-05
000040 ee ff fb 39 60 37 81 39 2c 00 8b b9 61 64 8c 39
       0.00048065133 0.00024646055 -0.00026512274 0.0002677767
000050 a5 0a 06 38 bc 37 e5 b9 a8 8e 84 38 77 37 dd 39
       3.1958003e-05 -0.0004371981 6.320822e-05 0.0004219373
000060 c4 97 34 b9 1d b9 38 b9 92 19 06 39 58 46 7f 39
       -0.00017222675 -0.00017616567 0.00012788762 0.000243449
000070 55 72 5e 39 93 fa 75 b9 96 1a 3c 39 b3 db 03 3a
       0.00021214162 -0.00023458367 0.00017938981 0.0005029991
000080 ff 79 b2 38 6e 49 42 ba 5e af 26 3a b9 a2 52 3a
       8.510425e-05 -0.00074114546 0.0006358529 0.0008035112
000090 a8 5d bd 39 6d 8b cd 3a 0e 5f 8a ba 4b 51 54 3a
       0.00036118669 0.0015681811 -0.0010556893 0.0008099272
0000a0 30 82 62 ba 89 c2 5d 3a f5 b3 4b ba 47 a2 c0 38
       -0.0008640615 0.0008459469 -0.0007770651 9.1855e-05
0000b0 4f 46 9a 3a 25 ba 4f 3a 35 52 4f 3a 73 15 a3 b9
       0.0011770221 0.0007924161 0.0007908673 -0.00031105764
0000c0 78 24 99 38 32 db 05 3a 78 8f 81 ba 8f ba 5a 3a
       7.302401e-05 0.000510621 -0.0009884676 0.00083438394
0000d0 4d f1 2d 3a e1 20 11 3a d1 f2 24 3a ef 50 f6 b9
       0.0006635383 0.00055362104 0.0006292286 -0.00046981077
0000e0 ed 55 0c 3a 62 e6 7a 38 07 90 45 3a 12 a0 d9 b8
       0.000535338 5.9819205e-05 0.00075364154 -0.00010377182
0000f0 29 78 44 ba a0 d2 9e ba 2c f2 67 ba 6b 1c 00 39
       -0.0007494712 -0.0012117215 -0.0008848037 0.00012217618
000100 67 c6 5f b9 0d 2a b5 39 72 8c 5a 39 c8 01 5b 3a
       -0.00021340848 0.0003455434 0.0002084242 0.00083544524
000110 46 14 3e 3a f7 3c 07 ba f7 5b 24 3a d3 42 87 39
       0.0007250946 -0.0005158926 0.00062698073 0.00025798994
000120 41 c1 4c 38 49 0c 67 ba bc 72 93 b9 04 c6 2b 39
       4.8817372e-05 -0.00088137813 -0.0002812351 0.00016381597
000130 56 35 c7 38 cb 23 a8 b9 81 bc 6a 38 6f 8d 6d b9
       9.498994e-05 -0.00032070125 5.5965505e-05 -0.0002265477
000140 8e 4e 10 39 1f 10 38 b9 b5 8c 93 3a d9 6f 80 b8
       0.00013762174 -0.00017553613 0.0011257144 -6.124349e-05
000150 8d 72 75 ba 1a 00 0e 3a 8b 18 1a 3a 0e 47 8c b9
       -0.00093630777 0.0005416885 0.0005878291 -0.0002675582
000160 5d b9 bf b9 ed c9 a4 b9 f7 ad 33 3a ad 58 9c b9
       -0.00036568465 -0.00031430964 0.0006854231 -0.00029820707
000170 11 ee 02 3a 52 0a 3a b9 89 b3 19 3a 6c 4f 15 b8
       0.0004994581 -0.00017742187 0.00058632396 -3.5598336e-05
000180 83 a5 97 ba 21 36 48 ba c5 c0 ab 39 82 96 ef 39
       -0.0011569712 -0.00076374604 0.00032759286 0.0004569777
000190 f9 31 0f ba c2 0e 5d 3a ad 87 70 3a 4a 32 88 39
       -0.00054624636 0.000843268 0.00091754907 0.0002597741
0001a0 7e 61 3b 3a 65 26 a9 b8 a1 25 8d 3a bb 19 e0 39
       0.00071480114 -8.0656995e-05 0.001076866 0.0004274378
0001b0 64 a1 53 3a 2e c7 a9 39 d8 19 87 b9 8e 64 aa b9
       0.00080730603 0.00032382592 -0.00025768462 -0.00032499846
0001c0 db 35 a1 ba 56 cf b9 39 fb ac dc b9 b8 7e 26 3a
       -0.0012299375 0.00035440427 -0.0004209055 0.000635128
0001d0 d7 0b b3 38 a6 01 45 3a 64 3c 16 3a 4f 71 56 b9
       8.5375905e-05 0.0007515199 0.0005731045 -0.00020450841
0001e0 ea d2 88 ba 72 60 b6 39 34 f9 6b 3a be b8 e2 b8
       -0.0010438834 0.00034785602 0.0009001673 -0.00010810931
0001f0 3c 95 32 3a 96 3d 34 3a 83 4e c0 b9 89 f3 cc 37
       0.0006812399 0.0006875632 -0.0003667959 2.44321e-05

network_body.observation_encoder.rsa.fc_v.bias f4 [128]
000000 e0 85 dd bc 5f 11 12 bd ce 66 b1 3c 36 5e 87 3c
       -0.027041376 -0.035661098 0.021655466 0.016524415
000010 f8 45 07 3d 01 ba a6 3c b9 40 9d 3c ad 2f e0 3c
       0.03302571 0.020352365 0.019195901 0.027366484
000020 7e b9 af bc 75 a1 96 3c c2 f7 35 3d 86 6e 32 3b
       -0.021450754 0.018387536 0.044425733 0.0027226522
000030 15 68 6d 3c ca fd 02 bd ab bc a8 3b 4b 60 2e 3d
       0.014490147 -0.031980313 0.005149444 0.0425723
000040 bd 38 01 bd 0f 93 1d bc eb 58 19 3d 00 b9 09 bd
       -0.03154825 -0.009617581 0.037438314 -0.033623695
000050 89 8b ae 3c 8e c2 37 bb d9 05 7b bd d1 9a 5e 3b
       0.02130677 -0.0028039548 -0.061284874 0.003396679
000060 39 5e bd 3c dc 26 07 ba 9a 20 5e 3a 36 34 30 bd
       0.023116218 -0.0005155632 0.0008473486 -0.043018542
000070 11 01 d2 3c 62 1a 31 3c 32 21 e0 bc 2e 44 ee bb
       0.025635274 0.010809513 -0.027359579 -0.0072713112
000080 fd 16 18 3c d7 47 77 bc 5f 52 2a bd a4 4b d6 3c
       0.009282825 -0.015092812 -0.04158246 0.026159115
000090 23 35 6c bc fb 48 0e bc 47 ff 47 bb 67 01 1e 3c
       -0.014416966 -0.008684392 -0.0030517147 0.009643889
0000a0 bd 7f 3f bc cb 7a fb 3c cc 9a a9 3c 97 d4 94 3c
       -0.01168817 0.0306982 0.020703696 0.018167777
0000b0 23 11 9d ba 7f 00 ee 3c 08 b6 da 3c 84 42 c4 3c
       -0.0011983257 0.02905297 0.026698127 0.023957498
0000c0 a0 7b 97 3c 39 31 0b 3d 50 cc 6b 3c df 82 00 bd
       0.018491566 0.03398249 0.014391974 -0.03137481
0000d0 ef 14 2b 3d e9 26 a7 3c 89 cd 79 bc 02 ee 19 bc
       0.04176801 0.020404296 -0.015246757 -0.009395124
0000e0 a3 a1 f9 3c 65 c5 0f 3d 2a 92 87 bc 97 c2 02 3c
       0.030472582 0.03510036 -0.016549189 0.007980964
0000f0 c4 1b b1 bc cf 0b 1f 3c c2 23 11 bd 67 4c ae ba
       -0.021619685 0.009707405 -0.035434492 -0.0013297916
000100 fc 75 4e bd d6 b4 7e 3c ec 30 55 bc d7 91 73 bc
       -0.050405487 0.015546044 -0.013012152 -0.014866314
000110 3f 31 41 bd bd e5 9f 3c 42 d8 c2 3c cb a4 64 bb
       -0.047166105 0.019518727 0.02378476 -0.0034888263
000120 5d bc ec 3b 84 44 f5 3c 99 a2 c1 3c dc f0 28 3c
       0.007224603 0.029939897 0.023637103 0.010311332
000130 4b d5 02 3c 1f ee 31 3d e2 3e 97 3b 5a f9 6c 3c
       0.007985423 0.04343998 0.0046156505 0.014463747
000140 97 50 9d ba 58 25 fc 3b 83 c2 ee 3c 27 90 d3 3c
       -0.0012002167 0.0076948814 0.029145485 0.025825573
000150 45 bf e1 3c f5 2e ae 3c d2 33 22 bc 0d 60 04 3d
       0.027557025 0.021262625 -0.00990005 0.032318164
000160 b5 79 fa bb 2b 87 77 bc 82 0e 31 bc b3 e6 21 bd
       -0.007643903 -0.01510791 -0.010806682 -0.039526653
000170 b3 5d ea bc 4b 87 07 bd 9d 3c b5 bc a0 ff 5f 3c
       -0.028609132 -0.03308801 -0.02212363 0.013671786
000180 25 6d b1 bc bd d6 5d bb 90 f5 a2 bb ee df 63 bc
       -0.02165849 -0.0033849918 -0.004973121 -0.0139083695
000190 c5 22 8d bc 5d d3 8a bc 3d e6 fc bc c6 1d 9c 3c
       -0.017228493 -0.016946489 -0.030871505 0.019057166
0001a0 98 0d 23 bb b6 18 b5 bc bb 8d da 3a 00 5e 53 3c
       -0.0024879929 -0.02210651 0.0016674319 0.012900829
0001b0 03 c2 e2 3c dc f5 bc 3c 05 bf 06 3b b3 ff 4a bc
       0.027680403 0.023066454 0.0020560634 -0.012390065
0001c0 a8 96 ee bc d6 ce 76 3c ea 41 b9 3c cd 48 ce 3c
       -0.029124573 0.015063962 0.022614438 0.025181198
0001d0 e6 d5 db bb e0 55 9b bc a7 ac 29 bd 30 12 bd 3c
       -0.0067088483 -0.018961847 -0.04142442 0.023079962
0001e0 4d 94 b4 3c 84 5a ad 3c bf 48 e7 bc 20 bb ae 3b
       0.022043372 0.021161325 -0.02823293 0.0053323656
0001f0 6f cb ae bb 1c f9 cd ba 42 b3 fd 3c a8 2b 19 bd
       -0.00533431 -0.0015714499 0.030969266 -0.03739515

network_body.observation_encoder.rsa.fc_out.bias f4 [128]
000000 e2 1e 7c 3c 5d 58 a1 bb d2 75 47 3d 93 bf 40 bc
       0.015388222 -0.004923864 0.048696347 -0.011764425
000010 4e f7 3a bc 52 69 5d bd 4e 34 d9 bb 6c e6 bd bc
       -0.011411501 -0.05405552 -0.0066285497 -0.023181163
000020 50 db ad bc 46 70 8b 3c 87 73 05 bc d2 f1 d7 ba
       -0.02122274 0.01702131 -0.00814522 -0.0016475266
000030 81 e2 84 bc e3 c4 ae 3c 33 bd 84 bc a3 06 b5 3c
       -0.016221287 0.021334117 -0.016203498 0.022097891
000040 63 ef a1 b9 fb 3d b4 3c e2 a7 9e ba f4 3b 27 3d
       -0.0003088667 0.02200221 -0.0012104476 0.04082866
000050 98 61 02 3d 00 c4 81 bd 32 c3 ae bd 06 94 9b 3c
       0.031831354 -0.06336212 -0.08533324 0.018991482
000060 4e 72 18 bd 2b 12 56 3d 1b d4 5c 3d 90 93 d3 bc
       -0.037218384 0.05226342 0.053913217 -0.0258272
000070 02 89 bd 3c 59 87 c2 bc 08 f9 0f bd 23 29 23 bd
       0.02313662 -0.02374618 -0.035149604 -0.039834153
000080 ef c5 cf 3c 16 f1 c2 bc c5 26 c6 3c b1 74 cc 3a
       0.025362937 -0.0237966 0.024188409 0.0015598742
000090 40 91 dd bd 58 92 a1 bb 45 f0 6e bc 42 5b e3 bc
       -0.1081872 -0.0049307756 -0.014583652 -0.027753476
0000a0 d5 17 8a 3c ad 83 e6 bc 36 4b a8 3b 82 8b 93 3c
       0.016857067 -0.02813896 0.005135919 0.018010858
0000b0 70 fc 19 3d 5b 38 4c 3c fd db 8d 3c 45 0c d4 3c
       0.03759426 0.012464608 0.017316813 0.025884757
0000c0 29 ec ff bb d4 77 3f bb 9b 03 b2 bc 4b 6f 78 3b
       -0.007810135 -0.002921571 -0.021730235 0.0037908133
0000d0 1f 06 10 3d d1 05 72 bb 6f 27 9b 3c e4 c8 5d bd
       0.035162088 -0.0036929736 0.018939702 -0.054146662
0000e0 6d 0c bd bc 47 26 e2 3c af e5 bf bc 68 ab b2 3b
       -0.023077214 0.027606143 -0.023424951 0.005452562
0000f0 d1 d0 c7 3c f0 04 09 3d 6a 6d af ba aa d8 04 3d
       0.024391564 0.033451974 -0.0013384048 0.03243319
000100 c3 ce 24 bd 5d 5a db 3c e1 d1 f7 3c 64 5c 11 3a
       -0.040236246 0.026776487 0.030251445 0.00055450783
000110 12 35 ac bc a4 04 19 3d 62 4e 95 3c 2e 70 94 3c
       -0.0210214 0.03735794 0.018225852 0.018119898
000120 31 bf 3f 3c 7e 8c 29 bd 46 d9 74 3b ca b8 2a bd
       0.011703298 -0.04139375 0.003736095 -0.041680135
000130 fb 4d 06 3d 36 63 d6 bc 89 b1 b3 bb c3 df 20 3b
       0.03278921 -0.026170354 -0.0054838103 0.0024547435
000140 39 92 af ba 96 b6 4c bc 46 00 90 bb d2 d0 ce bc
       -0.0013395018 -0.012494704 -0.004394564 -0.025246058
000150 20 69 aa bc d1 b9 a0 3c e9 88 b6 3c 32 19 39 bd
       -0.02080208 0.019619854 0.02228208 -0.045190044
000160 20 0d a4 bc a9 08 1a 3c cb 50 05 3d 60 25 8e bd
       -0.02002579 0.009401479 0.032547753 -0.069407225
000170 94 74 93 bd ea a1 04 3d c0 ae 0d 3a 68 df af 3c
       -0.0719997 0.032380976 0.0005404763 0.021468833
000180 d8 dc 87 bd 1b 07 9d 3d f5 a1 68 bc cf d8 1c 3c
       -0.066339195 0.07667371 -0.01419877 0.009573176
000190 be 53 48 bb c2 91 8b bc 1f 12 4f bc a5 f5 05 3d
       -0.0030567492 -0.017037276 -0.012638598 0.032704968
0001a0 20 4c 17 3d 63 a0 92 3c 1d 97 a1 bc 07 8f b6 3d
       0.036937833 0.017898744 -0.019725377 0.08913999
0001b0 5e 2c 1f 3c cb 45 8c 3d dd 8a 29 3c 09 e5 3d 3c
       0.009715168 0.068492495 0.010348049 0.011590251
0001c0 ee 54 2e bc f1 64 07 3d 38 23 04 bc a5 7c b7 3b
       -0.010640366 0.03305525 -0.008065037 0.0055995756
0001d0 a9 47 a8 bc 4c 0d 9d bb 34 76 0a 3c 89 68 7c bc
       -0.020541983 -0.004792845 0.008451033 -0.0154057825
0001e0 a8 2f 4e bc 4c 1e 31 3d dc 60 47 3d 4d c4 01 3d
       -0.012584604 0.043241784 0.048676357 0.031681348
0001f0 69 70 e8 bc 3a 8c 2d bd ed 33 49 3d c6 28 86 bc
       -0.028373914 -0.04237006 0.049121786 -0.016376864

network_body.observation_encoder.x_self_encoder.seq_layers.0.weight f4 [128, 3]
000000 55 19 27 be 7f 93 88 3d f7 f7 f4 bb 27 f2 04 be
       -0.16318257 0.06668758 -0.007475849 -0.12982999
000010 c6 63 0e 3d e2 1d 2a bd ee 79 f2 bc f6 ea 84 3d
       0.03476312 -0.041532405 -0.029599156 0.06490128
000020 ac ca 0b 3b 4f f4 cb 3b cb 9c 7b 3c b6 d7 bb bb
       0.0021330519 0.006224192 0.015357207 -0.005732502
000030 6d 8b 95 bd 76 54 b9 bc 1d a3 72 3d 88 c1 3c 3e
       -0.07301984 -0.022623282 0.05923759 0.18433201
000040 dc c3 de bc 3b 3d cd bb 8b cd 63 3c 6d 1a ab 3d
       -0.027193002 -0.0062634028 0.013903986 0.0835465
000050 b4 ba 66 bb 3e b7 18 3d 76 48 98 3d ea e4 58 bb
       -0.0035206499 0.03728413 0.07435696 -0.0033095428
000060 76 c6 25 be db 67 d1 3d 59 27 3f bc 11 c5 05 3e
       -0.16188988 0.10224887 -0.011667096 0.13063456
000070 43 dd 93 bd ef 6d ab bb 18 69 2b be eb b3 57 3d
       -0.07219937 -0.005231611 -0.16739309 0.052661818
000080 87 a8 f9 3a 47 3d 81 3d df 3e be 3d 72 39 44 3b
       0.0019047417 0.06310516 0.092893355 0.0029941467
000090 6f 30 1b 3d a4 cd 1d bc 70 45 49 3d 72 65 83 bd
       0.037887987 -0.009631548 0.049138486 -0.064158335
0000a0 4b 14 11 bd f3 2d ae bd 7c b0 2f 3e 18 bd d9 bc
       -0.035419744 -0.08504858 0.17157167 -0.026579425
0000b0 48 19 ea 3c e8 f5 c0 3c 6b 06 82 bc ed 73 46 bd
       0.028576508 0.023554757 -0.015872201 -0.0484504
0000c0 1c fc 2c 3e ca 9d 95 bd 20 4c 9c bb b7 58 b4 bd
       0.16893047 -0.073054865 -0.004769817 -0.088059835
0000d0 f4 e2 e6 3d 78 c6 d9 bc 1d 27 44 bd e2 dc f9 3d
       0.112737566 -0.026583895 -0.047888864 0.12200333
0000e0 8b 68 88 3b 18 c8 f8 bc 65 3f 15 be e7 b4 5e bc
       0.004162853 -0.03036885 -0.14574964 -0.013592935
0000f0 ab f2 a6 3c 7e 20 95 3d 69 82 17 bb 1c b5 52 be
       0.020379385 0.07281588 -0.0023118502 -0.205769
000100 cf f5 1a 3d 05 a6 4c bd 60 55 0e 3d 5b d7 d4 bd
       0.037832078 -0.049963016 0.03474939 -0.10392638
000110 b9 7f b1 bb 20 bb 31 bc 37 23 64 bd 7b 88 13 bd
       -0.005416837 -0.010847837 -0.055697646 -0.03601883
000120 cb 1e 0a 3d 8a 2b fa bc 93 01 61 bd 9c b0 1c be
       0.033720773 -0.03053834 -0.054933142 -0.15301746
000130 23 cd 94 bb aa e1 85 3c 06 28 5d bd 57 e9 1b bd
       -0.0045410558 0.016342957 -0.053993247 -0.038064327
000140 4a e1 0d bd 29 a8 9f 3d f0 d0 00 bb 84 aa 63 3d
       -0.03463868 0.07795746 -0.0019655786 0.05558254
000150 ac 97 e5 3d fe 9b 38 bd 4f 9f 00 3c 15 56 11 3b
       0.1121057 -0.04507064 0.007850482 0.0022176553
000160 00 22 b8 3d 73 0d a4 3c 51 92 d5 3d 28 59 ba 3c
       0.0899086 0.020025944 0.10428298 0.022747591
000170 cd 70 85 3d 33 52 a6 3d 1c af 0e 3d 7e ab 3b 3d
       0.06515656 0.08121147 0.034834966 0.045817845
000180 32 6f 5e bd fa 4b 07 bc 0a 1d 95 bd 8b d0 88 bd
       -0.054305263 -0.00825786 -0.072809294 -0.066804014
000190 91 c7 c1 bd 57 70 fc 3a 5f 1f 08 bd f9 41 c4 3d
       -0.094618924 0.0019259554 -0.033233043 0.09582896
0001a0 78 a3 51 bd 90 3e 26 bc 7f 0a e8 bd b1 f7 a7 bc
       -0.051181287 -0.010146752 -0.11330127 -0.02050385
0001b0 10 fd 89 3d 50 41 72 bd e5 ec fa b7 96 79 00 3c
       0.06737721 -0.059144318 -2.9912635e-05 0.007841488
0001c0 94 8a 96 3b 9a 0c f7 3c 97 4d ee 3d 99 bc cb bc
       0.0045941565 0.030157376 0.11635893 -0.024870204
0001d0 da 1d f7 bc 61 16 1e bd 1d f9 a6 3a 51 fb 56 bd
       -0.030165602 -0.03859556 0.0012739036 -0.052485768
0001e0 6c 16 32 3d 58 8b b2 bd 72 1b 0c 3c b0 2e 50 bd
       0.043478414 -0.08717984 0.008551465 -0.050825775
0001f0 ac 54 35 3d 3b aa 0e 3d 9a 2d b5 3b de df b4 bb
       0.044270203 0.034830313 0.005529118 -0.005519851
000200 f8 3d 2c bd 61 32 bb bd 9b 2f f7 bb 32 7a 92 bd
       -0.042051286 -0.091404684 -0.007543517 -0.07152213
000210 80 f6 60 3c c8 4f 4a 3d 55 00 cf ba d0 c5 e5 3c
       0.013730645 0.04939249 -0.0015792946 0.028048426
000220 4a 64 08 3b 30 d1 4d bd 8e d6 1d be 54 e4 2c 3d
       0.002081173 -0.050248325 -0.15413877 0.04220994
000230 24 60 94 bc 51 e3 0f be 7c c4 10 bd b3 a6 52 3c
       -0.01811225 -0.14051558 -0.035343632 0.012857127
000240 d6 90 1f 3e a8 81 15 bd 92 32 0f 3d ed 74 b0 bd
       0.15582594 -0.036500603 0.034960337 -0.08616052
000250 2f fe 9d 3d 01 bf 36 3c e3 ae be bd bb 5d 8e 3b
       0.07714497 0.011153937 -0.09310701 0.0043446696
000260 dc a4 80 bd 13 2b 10 be 3e df af bd e5 ba 41 3c
       -0.062814444 -0.14078932 -0.08587502 0.011824344
000270 62 6a ff 3b c7 98 bb 3d cb 8a 5a bb 0f 63 ae 3c
       0.0077946642 0.09159999 -0.0033346887 0.02128747
000280 71 7b 22 3e e1 63 21 bb e7 38 84 3b 8e 5b 11 be
       0.15867402 -0.0024626183 0.0040351036 -0.14195082
000290 4c 3b c5 bc 6d b2 52 3d e7 24 56 3d 12 75 bd 3c
       -0.024076127 0.05143969 0.052281287 0.023127113
0002a0 2a 8e c1 bc 03 ab 0f bc 8d e0 1a 3d 42 23 b3 bd
       -0.02362736 -0.0087688 0.037811805 -0.08746959
0002b0 6b ff 29 3d 8a b5 00 3d e5 c8 df bd cf e3 36 bd
       0.04150335 0.03142313 -0.109269895 -0.04465085
0002c0 02 c7 09 3d 3e 33 dd 3d 44 7c 87 bc ab f3 0b bd
       0.033637054 0.10800789 -0.016538747 -0.034167927
0002d0 42 2a bd bd eb d9 a9 3c e5 54 8f bd ae c8 db bc
       -0.09236576 0.020733794 -0.06998614 -0.02682909
0002e0 d6 51 39 3d 06 85 11 3d 4b 4d 7a 3d c2 84 35 be
       0.04524406 0.03552725 0.06110887 -0.17726424
0002f0 e7 62 fa 3c 91 0c a9 3d 56 26 e7 3c d2 f5 19 bd
       0.030564738 0.0825435 0.028216522 -0.03758795
000300 3b 46 38 bd 1f c7 da 3d 4c aa 0e bd e1 86 2c bd
       -0.044988852 0.106825106 -0.034830377 -0.042120818
000310 23 bd fb 3d 7e 8b 4f bd c8 1b 13 3e 41 a9 bc bc
       0.12291934 -0.05067014 0.14366066 -0.023029925
000320 31 16 ee bb 12 a0 8f 3d 07 95 39 3d f8 3f 67 3c
       -0.007265829 0.07012953 0.04530814 0.014114372
000330 e2 14 de bb c5 de b7 bc 68 34 9b 3a 5f 4f bf 3c
       -0.006777392 -0.022445092 0.001184118 0.023353277
000340 8a f4 af 3d a4 af 29 3d 40 f3 bc 3d 3d 8e 76 3d
       0.08591564 0.04142727 0.09226084 0.060194243
000350 d5 11 81 bd 2a b7 a5 3c f9 d9 8e 3d 63 57 2b bd
       -0.06302229 0.020228941 0.06975169 -0.041831385
000360 59 81 f1 3c 10 13 01 3e 74 27 91 3c 94 11 e5 3d
       0.029480623 0.12604928 0.017719008 0.111849934
000370 d9 2f 90 bd 55 56 cc bc e3 e5 92 3c 6c a0 92 3d
       -0.07040376 -0.02494351 0.017931884 0.07159504
000380 cb d8 2f 3d f9 37 e6 bd 32 2c 28 3d 67 6d f0 bc
       0.04293136 -0.11241145 0.041057773 -0.029349042
000390 e3 93 84 3a db 9f ce 3a 3e 9c 39 3c 98 f5 74 bd
       0.0010114874 0.0015764193 0.011328755 -0.05980453
0003a0 80 32 e3 bd 87 4f ba bc ba f8 9a 3d 60 26 cb bc
       -0.110936165 -0.022743 0.07566972 -0.024798572
0003b0 3a 67 81 bc 20 3a 26 be d1 6d 64 3d e6 1e 58 bd
       -0.015796293 -0.1623311 0.05576879 -0.052763842
0003c0 29 af 95 3d 35 31 2e bd 85 76 be 3c e7 e7 a7 3d
       0.073088 -0.042527396 0.023249874 0.08198529
0003d0 ff c7 e6 3d b1 5b a3 3c 5a c6 ab 3d 76 11 e9 bd
       0.11268615 0.019941183 0.08387442 -0.113802835
0003e0 4a c9 18 3d 7f c4 8f 3d df ba 6c 3c 9d fe 85 bd
       0.03730134 0.070199005 0.01444885 -0.06542704
0003f0 b2 5c c3 3d c5 bc 8e 3c 6d cc 96 3d 12 5f 3b 3d
       0.095391646 0.017423997 0.0736321 0.045744963

network_body.observation_encoder.x_self_encoder.seq_layers.0.bias f4 [128]
000000 60 65 08 bc c0 f8 d3 38 da ba ec bb 75 c6 cd b9
       -0.008324951 0.00010107597 -0.007224423 -0.0003924851
000010 60 d9 74 bc f5 a8 33 3c 91 77 f7 bb 19 ac cf bb
       -0.014944404 0.010965575 -0.007552095 -0.0063376543
000020 8f 6c 43 bc 83 9d 10 3c 6a 44 24 bc 50 24 fc bb
       -0.011927738 0.008826616 -0.010026077 -0.0076947585
000030 71 7a e8 bb 50 c7 95 3c 03 22 2b 3b 37 59 2f 3c
       -0.0070946743 0.018283516 0.0026112802 0.010702423
000040 a2 c0 42 3c d3 84 ea bb 9d 3f 47 bc 3b d9 44 3c
       0.011886748 -0.007156947 -0.012161163 0.012014682
000050 ed 67 b4 bb 35 97 3b b9 94 3f 39 3c 1b 19 23 3c
       -0.005505553 -0.00017890039 0.011306662 0.009954716
000060 6e 0a 7d 3c de 08 01 bc 96 a0 80 3b 1c a1 ed bb
       0.015444381 -0.007875649 0.0039253933 -0.0072518717
000070 94 0e 00 3c 86 63 38 bc 69 d6 1f bc 0f ee 0f bc
       0.007815976 -0.011254197 -0.009755709 -0.008784785
000080 e9 58 3b 3c d3 df 88 3b c9 08 96 38 94 0a 66 3c
       0.011434772 0.0041770726 7.154194e-05 0.014040608
000090 ac 00 e4 3b b7 98 85 bb 61 b6 3c 3c e1 f5 1a 3c
       0.006958088 -0.004077043 0.011518092 0.009458036
0000a0 3d fe fa 3b 22 7a 2e bc 46 9c fa 3b 0b ef 1c 3c
       0.007659702 -0.010649236 0.007648024 0.009578477
0000b0 ba 61 71 bb 04 62 23 3c 94 6b 9e bb 52 a6 59 bb
       -0.0036831931 0.009972099 -0.0048346017 -0.0033210707
0000c0 4d f8 ad 39 90 bc 49 bc 45 a4 be 3b eb f1 20 bb
       0.0003318213 -0.012313023 0.0058179223 -0.0024558257
0000d0 c2 18 0b bc 3e f4 23 bc a3 27 7a 3c e0 a8 aa bb
       -0.008489789 -0.010006962 0.015268239 -0.0052081198
0000e0 eb 80 f3 bb e7 7f 3e bc 84 f6 d1 bb 77 2c 32 3c
       -0.0074311397 -0.011627174 -0.006407561 0.010874859
0000f0 2e 51 f0 3b 65 a3 2b bc ab f0 e2 3b e2 f7 c7 3b
       0.007333896 -0.010475968 0.0069256625 0.006102548
000100 cb 78 61 bb e8 e2 ec ba 3c 51 ee 3b ef 54 6c bb
       -0.0034404274 -0.0018072994 0.0072728675 -0.0036061367
000110 fa f1 86 3a 52 dd 66 bc e6 c1 24 3c 99 3e 05 3b
       0.0010295503 -0.014090853 0.010055995 0.00203315
000120 a1 dc 35 bc d7 73 79 3c 9c 78 69 bc 01 94 21 bb
       -0.011099965 0.015225372 -0.014249947 -0.0024654868
000130 f3 14 14 bb c6 43 10 3c b6 f4 ed 3b 8c ec a1 3a
       -0.0022595495 0.008805221 0.007261838 0.0012353822
000140 63 ca 09 3b 38 f9 0a bc 13 a4 8e 3b 3f 25 78 3c
       0.0021025173 -0.00848227 0.0043530553 0.015145599
000150 22 e1 3d bc 24 ef a6 bb 7b c6 56 3c 9e f0 03 bb
       -0.01158932 -0.0050944258 0.013108845 -0.0020132433
000160 c5 a1 00 3c 4f c7 a7 3a ff d3 d6 3b f5 7e 12 3b
       0.007851069 0.0012800487 0.0065560336 0.0022353504
000170 3e 85 b5 3b 69 c1 48 bb 73 ca 4c 3b 21 c6 13 bc
       0.0055395653 -0.003063286 0.0031248599 -0.009019406
000180 6b ca cb 3b de 56 7c bc 05 29 53 3c 79 4e 8f 3b
       0.0062191985 -0.01540157 0.012888198 0.0043733683
000190 c1 15 4a bc ca e4 1d bc 19 5b c9 3b d0 b6 3e bb
       -0.012334288 -0.009637067 0.006144893 -0.0029100664
0001a0 ee d0 32 3a 60 6a 34 3c 07 e4 b0 b9 c4 fa 07 bc
       0.0006821294 0.01101169 -0.0003373923 -0.008299533
0001b0 e4 16 86 3c b4 d7 37 bc eb df 3e 3c 71 f1 d8 bb
       0.016368337 -0.011220861 0.011650066 -0.006620579
0001c0 bb dd 8d 3a 33 29 0b bc d1 2a b2 bc b3 76 59 b9
       0.0010823527 -0.008493709 -0.021748932 -0.00020738952
0001d0 04 bc 94 bb 49 2d 63 3c f1 6b 43 3c 0a 0d 11 bc
       -0.004539015 0.013865777 0.011927591 -0.008853206
0001e0 ad 37 a7 3a b8 35 87 bb 74 e1 b9 bb 4a 8a 56 bb
       0.0012757682 -0.004126277 -0.005672628 -0.0032736235
0001f0 f9 e8 27 3c 7e 57 83 bb 73 97 a5 bb 91 a9 91 3c
       0.010248416 -0.0040082326 -0.0050534545 0.01778105

network_body._body_endoder.seq_layers.0.weight f4 [128, 131]
000000 5c 50 97 3d 59 78 a3 bc 3d 36 68 be 0b f9 24 3e
       0.07388374 -0.019954847 -0.2267694 0.16110627
000010 a8 c8 46 3e ed 14 56 bd 4f 38 2c 3d 51 65 95 bd
       0.19412482 -0.05226605 0.042045888 -0.07294715
000020 d8 dd 24 ba 9c 61 9d bd 5f 80 45 3e 5a 2d 27 bd
       -0.0006289161 -0.07684633 0.19287251 -0.040814735
000030 b6 39 64 bd dc 99 ab 3d 32 b0 80 bc f1 9c 5e 3e
       -0.0557191 0.08378956 -0.015709016 0.21739556
000040 96 9e e1 bd 16 d0 53 be 36 ce bc bd 76 10 cf bc
       -0.11016576 -0.20684847 -0.09219019 -0.025276404
000050 0a 0b 16 3e 8d 81 ef 3c 72 f1 b5 39 65 9f fc 3d
       0.14652649 0.02923658 0.000347029 0.123350896
000060 47 fd 1e 3c 8a 01 3b 3e e3 f9 3f 3c f3 82 bb 3d
       0.009703941 0.18262306 0.0117172925 0.09155836
000070 90 4e a1 bd a0 73 df 3d 1d 96 bb bd 22 f6 fb 3d
       -0.07876313 0.109107256 -0.09159491 0.123028055
000080 e8 35 a5 bd 33 61 88 3b 4f 4f b4 3d 49 98 00 3e
       -0.080669224 0.0041619777 0.088041894 0.12558092
000090 08 6f 1d bd b7 ec a4 bc 34 67 0f 3d db 7e 82 3d
       -0.038435966 -0.020132406 0.03501053 0.06371852
0000a0 85 f8 da 3d b9 c2 58 3d a5 19 26 3e c0 ba 14 bc
       0.106919326 0.052920077 0.1622072 -0.009077728
0000b0 9d f3 cb bc 45 2d 06 be 3e 4f 52 bd 14 e3 b7 bb
       -0.024896437 -0.13103206 -0.051345102 -0.0056117866
0000c0 b1 81 53 3b b8 8a 38 bc d5 92 b2 3c 9b 11 e4 3d
       0.0032273347 -0.011263542 0.02179853 0.111361705
0000d0 26 c1 6b 3d d3 d5 9a bd c3 47 ca bc 34 59 3d be
       0.057557248 -0.07560315 -0.024692422 -0.1849106
0000e0 5f 4b d9 3c 68 34 4f 3d 8e 1f 56 3e a8 66 99 3d
       0.026525198 0.050587088 0.20910475 0.07490283
0000f0 6c 53 f2 3d d9 99 30 3d 55 0d a4 3d 4d e7 d1 3d
       0.11832318 0.04311547 0.080103554 0.10249195
000100 ed ab c9 3d 5d 32 5b bd 88 46 ba bd 88 e7 f4 bd
       0.09847245 -0.053514827 -0.09095484 -0.119582236
000110 07 50 b3 bd f8 73 02 be 0d 89 84 3d eb dc 15 bd
       -0.087554984 -0.12739551 0.06471453 -0.036587637
000120 e9 81 b4 3c 30 19 ad bc 29 1b ca 3a fa f9 ec bc
       0.022034602 -0.021130174 0.0015419471 -0.028927792
000130 2a 37 b3 3d ab 1a 6d be b2 3d 1b 3e 66 19 09 bc
       0.08750756 -0.23154704 0.15160254 -0.008367872
000140 4c dc d0 bd 21 be d6 bb 2a 6d 10 bd 7a e7 8f bd
       -0.10198268 -0.006553427 -0.035260357 -0.070265725
000150 56 76 3a 3e 0d 85 f9 3d c4 f8 f8 bd f0 09 99 3d
       0.18209204 0.121835805 -0.12156823 0.074725986
000160 d6 ea f8 bd 4d ed 23 3d c9 dd cf 39 3d f2 86 be
       -0.121541664 0.04002123 0.0003964736 -0.26356688
000170 8b e8 b5 bc f7 02 d3 3c 77 b1 d4 bc 16 41 2c 3c
       -0.022205612 0.02575825 -0.025963528 0.010513565
000180 3f 3d 87 bd f3 4c 72 3d 56 5f ad bc 91 43 71 3e
       -0.06603479 0.059155416 -0.021163624 0.23560931
000190 89 5b 91 bd 2a c3 93 3d 4f 38 17 3e 4b af 9c bd
       -0.07097537 0.07214959 0.14767574 -0.07650622
0001a0 3b 99 2f be 84 71 03 3d 2f f9 2c 3e 6d a3 22 3d
       -0.17148297 0.03209068 0.16891931 0.039706636
0001b0 fc a3 b2 bd f8 f5 1a bd 43 b9 01 3e f3 e2 39 bd
       -0.08722684 -0.03783223 0.12668328 -0.04538245
0001c0 d6 c2 89 3d a7 04 3a 3d ce 6d f5 bd 00 88 16 bd
       0.06726615 0.045414593 -0.11983834 -0.036750793
0001d0 76 1d 28 3e c8 34 97 bc 14 44 55 bc 82 b1 83 3c
       0.16417488 -0.018457785 -0.013016719 0.016075853
0001e0 d1 8d 48 be 65 c7 0c 3d 67 1c 39 be d0 38 1b 3e
       -0.19585349 0.034369845 -0.18077241 0.15158391
0001f0 9f 42 13 bd 98 da 0e be cf 5e 1a 3d 89 0d 9f bd
       -0.035952207 -0.13950574 0.037688073 -0.077662535
000200 1a 36 e0 3d c3 e9 19 be fb a8 68 bd 14 c0 bd 3e
       0.10947819 -0.1503058 -0.056801777 0.37060606
000210 86 1b 03 be 9e 19 1a 3e 39 4c c3 bd b2 b2 14 3e
       -0.12803468 0.15048835 -0.09536023 0.14521292
000220 b4 71 54 bc b7 94 c5 3d 1e 1a eb 3d b2 2c 9f 3d
       -0.012966562 0.09647506 0.11479591 0.07772197
000230 e3 a4 ce 3d 67 e0 4b bc 39 7e 11 bd b4 13 82 3d
       0.100900434 -0.012443638 -0.035520766 0.06351414
000240 e6 d3 ac 3c 9b 3f 04 3e 2b f2 10 be f9 f0 af 3d
       0.021097135 0.12914889 -0.1415488 0.08590884
000250 52 b1 ac 3b b5 93 ee 3d 09 56 0b be 50 f2 a5 bc
       0.0052701617 0.11649267 -0.13607039 -0.020257145
000260 c5 51 cb 3d 96 d3 64 3d a8 c0 88 bd 8a 2d a1 3d
       0.09927706 0.055865847 -0.06677371 0.07870014
000270 82 a3 65 bc 21 9d e0 bd 5c a7 94 bb 5f 2e 80 3d
       -0.014016034 -0.1096747 -0.0045365524 0.062588446
000280 3d 88 47 3d 0d 81 a9 3d 6e eb c5 3d 08 cb d9 bc
       0.04871391 0.082765676 0.09664045 -0.02658607
000290 09 e8 97 3d 35 22 d6 bb 82 24 81 3c 57 17 91 bd
       0.07417304 -0.0065348395 0.015764479 -0.0708453
0002a0 41 e4 07 bd 72 fa 7f bd 58 89 a0 bd 55 60 81 bd
       -0.033176664 -0.062494703 -0.07838696 -0.06317202
0002b0 62 b7 e3 3d 46 c6 b7 bc 8a f4 30 bc 5d 48 7a 3e
       0.11118962 -0.022433411 -0.01080049 0.24441667
0002c0 52 c1 a7 3d 74 5f dc 3b 74 db 02 3d 10 7a a1 3d
       0.0819117 0.006725246 0.031947568 0.0788461
0002d0 71 8d 98 bd d4 0f db bd 17 e7 c2 bd 7e f1 71 3d
       -0.07448853 -0.10696378 -0.09516733 0.059068196
0002e0 f7 4e d2 3d cb 44 ae bd 8e 8b ba bd 64 b1 e6 bd
       0.102689676 -0.08509215 -0.09108649 -0.11264303
0002f0 fa 94 e3 3d d0 11 09 3d 14 ad c3 3d 7e ff e8 3c
       0.111123994 0.033464253 0.095544964 0.02844214
000300 af 5f 0f 3d e6 19 a3 3d 3c dc 2c 3d 81 f5 6c be
       0.03500336 0.07963924 0.04220222 -0.23140527
000310 00 5f 81 3d 9d f1 2a 3d 7d a0 85 bd 68 91 95 3d
       0.06316948 0.041734327 -0.06524751 0.07303125
000320 55 c5 15 bd da d6 a4 bb 6d 2a c9 3d e1 cf 82 bc
       -0.036565144 -0.005030495 0.09822545 -0.015968265
000330 7b 89 30 bd ae e4 91 bd 6d e3 01 3d 11 61 77 bd
       -0.04309986 -0.07123695 0.03171103 -0.060395304
000340 26 7c e0 3d 16 c1 fa 3d 39 13 f0 bc 3d 2f 1c be
       0.109611794 0.122438595 -0.029306041 -0.15252395
000350 ac 42 d3 bb f3 5e 2e 3e 0a 57 e0 bd 41 aa 8b 3d
       -0.006447157 0.17028408 -0.109541014 0.06819583
000360 0f 79 22 be 0f 33 1b 3e fd 43 01 be 7e ac 03 be
       -0.15866493 0.15156196 -0.12623592 -0.1285877
000370 42 46 6d bd 6d 84 89 bb 25 8e a3 bd b0 54 15 b8
       -0.05792833 -0.0041966946 -0.07986096 -3.560324e-05
000380 12 1e a6 bd e0 e0 2c be ed 5d 20 bd 05 7a 38 3d
       -0.08111204 -0.16882658 -0.039152075 0.045038242
000390 47 4f 84 3d 9d 9d 52 be 01 25 af 3b c6 be ef bd
       0.064604335 -0.20567937 0.0053449874 -0.11706309
0003a0 97 a4 e8 bd ab 70 10 3d 0d f7 28 3e 20 43 17 bd
       -0.11359518 0.0352637 0.16500492 -0.03692925
0003b0 60 16 7b 3d 41 7f cb 3d 5f 00 08 bc 22 28 80 3c
       0.061300635 0.09936381 -0.00830087 0.015644137
0003c0 60 d4 31 3b 7a f2 d8 bc 43 94 99 3c 05 e1 1d 3d
       0.0027134642 -0.02648281 0.018747455 0.038544673
0003d0 af a0 d1 bb 5f 1a c7 3d ca 11 2b be 2b 6a 51 3d
       -0.006397329 0.09721827 -0.16706005 0.05112664
0003e0 46 d9 e2 bd dc 5d d9 bd 15 6d 11 3e 59 05 cd 3d
       -0.11076598 -0.106136054 0.14201768 0.100107856
0003f0 a5 c7 a3 bd 2c c5 53 3e aa fa d9 3d 0b 2a 9a ba
       -0.079970635 0.20680684 0.106435135 -0.0011761797

network_body._body_endoder.seq_layers.0.bias f4 [128]
000000 49 14 22 bd 0c aa 3a bd c1 5e 73 bc c3 db da bc
       -0.039570127 -0.045572326 -0.014854134 -0.026716119
000010 62 72 86 3c ed 46 58 3c 54 27 7f bd be cb 48 bd
       0.016411964 0.013200504 -0.062293366 -0.04902243
000020 ba b4 94 bc cc 3f ef bc 93 9d 49 bc 7a 47 b7 bc
       -0.018152583 -0.029205225 -0.012305635 -0.02237295
000030 3a a5 2b bd c4 dc 86 bc 30 bb 24 bd 4f 3b 09 3d
       -0.04190562 -0.016462691 -0.04021758 0.033503827
000040 da 4a 91 bd fd 64 ab bc e3 4b bb bc 68 67 d3 3a
       -0.07094355 -0.020922178 -0.022863334 0.001612884
000050 c6 91 e9 bc 94 1b 27 bd 86 8c 4d bd be 09 75 3d
       -0.028511893 -0.040797785 -0.05018284 0.059823744
000060 2d e3 23 3c a4 36 3f bd 4c d1 e6 bc f4 39 f7 bc
       0.010002893 -0.04668297 -0.028175972 -0.030179001
000070 c1 56 3c 3b 2d 79 0f bd 8b d4 fb bc b2 5f 54 3d
       0.0028738233 -0.03502767 -0.030740997 0.051849075
000080 ac f3 01 3a 6a aa 6f bd 11 c5 4b bd 2d f6 4a bd
       0.00049572694 -0.05851213 -0.049748484 -0.049551178
000090 de ad e1 bd da 07 f6 3c 92 e4 0b 3d ee 7a 70 bd
       -0.11019491 0.03003304 0.03415353 -0.058710985
0000a0 5b 4d 38 bd 81 dd af bc e2 45 0d bd 57 05 f8 bc
       -0.044995647 -0.021467926 -0.034490474 -0.030275984
0000b0 31 fa af bc 74 47 14 bd 93 db 58 bd 0f 4f 52 bd
       -0.021481605 -0.036200956 -0.052943777 -0.051344927
0000c0 39 82 a3 bc fa 07 66 bd c8 b2 18 bd 29 71 95 3a
       -0.019959556 -0.05615995 -0.037279874 0.0011401522
0000d0 30 e5 26 bd e3 19 ed bb 85 ba 9f 3c 02 4c f8 bc
       -0.040745914 -0.007235752 0.01949812 -0.03030968
0000e0 3e 80 bc bc ed f3 2a bd df cf 41 bd fd 52 f8 3b
       -0.02301037 -0.041736532 -0.047317382 0.0075782523
0000f0 21 ca 07 bd 51 a5 74 bc 7c 2a bb 3a e7 8d 1b bd
       -0.03315175 -0.014931993 0.0014279629 -0.037977125
000100 7b 03 05 bd 78 76 5b bd 46 ec 6f 3b b6 23 09 bd
       -0.032474022 -0.053579777 0.0036609336 -0.033481322
000110 0f 63 53 3b 43 64 1d 3c ce 35 c3 bc b4 d8 23 bd
       0.0032255088 0.009606424 -0.023829367 -0.040001586
000120 34 49 85 bb 1a 5d a8 bc 44 77 11 bd dc bd 03 3d
       -0.0040675644 -0.020552207 -0.03551413 0.032163486
000130 f2 b2 6e 3c 72 a4 d4 bb 89 6d 0c bd 2a 23 47 3b
       0.014569031 -0.00648933 -0.03428415 0.003038595
000140 5b 39 9b bd 2c 02 e8 bc 52 30 e4 bc 43 11 21 bc
       -0.07579299 -0.028321348 -0.027855072 -0.009830776
000150 e2 59 72 bc 32 92 d4 bc 91 44 a3 bd 9f b3 96 3c
       -0.014791938 -0.025948618 -0.079720624 0.018396197
000160 b0 16 75 bd 6a 85 ed ba 03 85 17 bd e1 5d 3e bc
       -0.05983609 -0.0018121426 -0.036992084 -0.011619062
000170 e6 b5 b5 bc c1 ec 71 bc 61 6a 8a bc b8 36 b5 bc
       -0.022181462 -0.014765919 -0.016896429 -0.022120818
000180 be 60 a1 bd 66 83 e8 bc 0f 4b 05 bc 55 b1 a9 3b
       -0.0787978 -0.028382968 -0.008135571 0.0051786103
000190 c3 87 96 bd fc 85 c7 3c 72 90 23 3b 0a e2 25 bd
       -0.07350113 0.02435588 0.0024957922 -0.04049877
0001a0 04 79 8f bd e8 0d b2 bc 1c 71 8b 3c 93 a6 d8 3b
       -0.07005504 -0.021735147 0.017021708 0.006611654
0001b0 17 62 e6 bc 51 98 8e bd 7c d3 88 bb ab 05 bf bc
       -0.028122945 -0.06962646 -0.0041756015 -0.023318132
0001c0 fc 05 47 bd 2f 52 18 bd 8c 5c 44 3a d9 0f 9b bb
       -0.04858969 -0.03718775 0.0007490597 -0.004732114
0001d0 67 66 11 3d a5 27 21 3c 39 ff 27 bd 12 ed 46 bd
       0.03549805 0.009836112 -0.041014884 -0.04856593
0001e0 a8 ea 8b bd 56 43 8d bc 22 e7 d4 3c 2c 88 ff 3b
       -0.068318665 -0.017244022 0.025989119 0.0077982154
0001f0 3a 8e 0b bd b1 aa 83 3c 2a 40 c1 bd f4 7c 39 bd
       -0.034071185 0.016072603 -0.094360664 -0.04528518

network_body._body_endoder.seq_layers.2.weight f4 [128, 128]
000000 92 37 ea 3d 5f ac 1f bd 81 3f 32 3e 8c 2a 98 3c
       0.114363804 -0.038982745 0.17407037 0.018574975
000010 b1 31 f8 bd 89 52 16 3d b7 de 35 bd 5c 8f a1 bd
       -0.12118853 0.036699805 -0.04440185 -0.07888672
000020 6c bd 4a 3d 07 e7 c2 3d 88 d7 e5 3d 43 ed fb 3a
       0.049497053 0.09516721 0.1122275 0.001922049
000030 23 99 c6 bd e3 fc 70 be 28 28 59 bd 47 43 9c 3d
       -0.09697177 -0.23533969 -0.05301681 0.0763002
000040 77 52 55 3b 01 b5 8d bd 89 30 a4 3d 7e 68 6f 3d
       0.0032550374 -0.069192894 0.0801707 0.05844926
000050 15 77 a3 bd 83 35 f1 bb 31 35 7a bc 78 9b d3 3d
       -0.079816975 -0.0073611154 -0.015271471 0.10332388
000060 a5 ff a8 bd 75 04 dd 3d 2c c3 59 bd 9d 7f 30 3c
       -0.08251885 0.10791866 -0.053164646 0.010772613
000070 4c ba 6e bd e4 f5 81 3d 18 1f 10 be fd 79 01 3e
       -0.058283135 0.06345728 -0.14074361 0.12644191
000080 f2 5f 67 3d 54 d1 e2 bd 0b 5e 42 3c 83 11 39 bc
       0.056487985 -0.110750824 0.011863242 -0.011295679
000090 d7 cd 1a 3d 2b 74 12 3e b4 ca 8b 3c 9f 1f 68 3d
       0.03779396 0.14302127 0.01706443 0.05667078
0000a0 d9 4e 27 3d e7 83 9d bd f6 34 45 3d e4 6a 5a 3d
       0.04084668 -0.07691174 0.04814621 0.053324595
0000b0 f9 4a 6c 3e 89 ba b7 3c 80 e8 db bd 39 ca 17 bc
       0.23075475 0.022427814 -0.10737705 -0.009264522
0000c0 ad 74 13 bd a1 64 e0 3d cb 21 91 bb 55 e8 e7 3d
       -0.035999943 0.109566934 -0.0044290773 0.11323611
0000d0 cd 27 d9 3c 4a 58 f1 bb af 1a 71 bd cd b9 e8 bd
       0.026508236 -0.007365261 -0.058863338 -0.11363564
0000e0 78 53 d8 3c 97 95 6a 3d 77 6b 5a 3d cb d1 6c 3e
       0.026406989 0.057271566 0.053325143 0.23126905
0000f0 49 97 d6 bc ae c0 6d be 34 d4 f0 bc a8 92 41 3d
       -0.026195185 -0.23218033 -0.029398061 0.047259003
000100 39 33 98 3d 4b b6 9b 3d 7b e9 ab bb f9 c4 41 be
       0.07431645 0.07603129 -0.005246339 -0.18922795
000110 aa 59 1d 3d 2b 97 49 bc 5f b2 1e bb 44 39 13 bd
       0.03841559 -0.012304108 -0.0024215204 -0.035943285
000120 8e e0 08 3d 37 1c de bb 2f c4 44 3d 0a 86 35 bc
       0.033417277 -0.006778266 0.048038658 -0.011079321
000130 f4 56 27 be be ea 2e be a7 90 82 bd 1c 54 3b 3d
       -0.16341764 -0.17081735 -0.063752465 0.04573451
000140 25 6d 2f 3d bf d9 85 bc f5 23 95 3d 51 7a 64 3d
       0.042828698 -0.016339181 0.07282249 0.055780713
000150 1e d1 c3 3c 7e 73 a8 3d ea b5 45 bd f2 54 84 bd
       0.023903426 0.082251534 -0.04826919 -0.064615145
000160 b8 3c 9b bc fe 8e df 3c e4 62 95 bd 75 b8 52 be
       -0.018949851 0.027289864 -0.072942525 -0.20578177
000170 06 44 05 bd 67 79 07 3e 54 83 a3 3c 65 9d 67 3e
       -0.032535575 0.13229905 0.019960083 0.22618635
000180 61 66 ad 3d 1e ab 7e 3c 62 09 e7 3d ae 12 0c be
       0.08466793 0.015543727 0.112810865 -0.13679
000190 50 bb 3b 3e e5 91 9b 3a d1 c8 43 bd 23 35 b6 bb
       0.18333173 0.0011869041 -0.047798935 -0.0055605336
0001a0 f9 e1 1e 3e b6 99 cf 3d ac 86 d0 bc 98 e8 66 bd
       0.15515889 0.1013674 -0.025454842 -0.056374162
0001b0 37 a1 18 bd 4b 34 d4 bb 08 d5 f8 bd cd 69 06 3e
       -0.03726312 -0.0064759604 -0.121500075 0.13126297
0001c0 59 47 b4 3c eb 24 12 3e a3 0e 83 3d 48 14 09 3e
       0.022006677 0.14271896 0.06399276 0.13386643
0001d0 82 03 a5 3c 97 46 77 3e 79 b1 ae 3c 83 06 37 be
       0.020143274 0.24148022 0.02132486 -0.17873578
0001e0 26 99 c0 ba 84 89 54 bd 21 e5 4f bd 3e c3 6d 3d
       -0.0014694079 -0.051888958 -0.050755624 0.058047526
0001f0 c4 3f 3c be 4d dd a5 3d 75 da d9 bd ab f8 8b bd
       -0.183837 0.080988504 -0.106373705 -0.06834539
000200 4a 0f 84 be d7 6b 7b be e5 20 47 3e b4 b8 96 3d
       -0.25792915 -0.24552856 0.19446142 0.07359448
000210 25 14 dc 3c c7 e0 21 bd 4d e2 94 bc 36 4b 90 3d
       0.026865074 -0.039521005 -0.018174315 0.07045595
000220 69 51 13 be 21 0c 83 3b 4d 8d 0f bd 87 00 fe bd
       -0.14386524 0.0039992486 -0.035046864 -0.12402444
000230 42 9b 01 3e e3 cc c7 3d 1b 9c e1 3d 4f 97 20 3e
       0.12656882 0.09755876 0.11016103 0.1568272
000240 47 07 9e 3b 7e 10 dd bd f1 3c d5 3d de b1 8d bc
       0.004822645 -0.10794161 0.10412014 -0.017296728
000250 76 14 2c bd fc b9 b1 bd 9a f4 d4 bc f0 07 87 3c
       -0.0420117 -0.08678052 -0.025995541 0.016483277
000260 fc 0d 6a bd b8 fa 62 be 65 89 0a be 5e 9a d8 bd
       -0.057142243 -0.22165954 -0.13528974 -0.10576318
000270 8e a3 0a 3e 3e e5 e4 bb e5 4d 0b be 6b c4 92 3e
       0.13538954 -0.0069853356 -0.13603933 0.2866548
000280 a6 36 09 3e 15 56 46 bb b1 22 b4 3d 37 7b cf 3d
       0.13399753 -0.0030263711 0.08795679 0.10130923
000290 d8 0a 4c 3d ae 4c 15 3d 73 f1 30 bd 9f 5d 4f 3e
       0.04981503 0.03645008 -0.043199014 0.20250557
0002a0 e6 bd 67 3d 7b d0 f3 bc e4 6e dc 3d b0 19 58 be
       0.056577586 -0.029762497 0.10763338 -0.21103549
0002b0 1e e8 09 3e b0 cd 94 3d 72 d9 cb bc 98 21 24 bd
       0.13467452 0.07265794 -0.02488396 -0.0400711
0002c0 cf b1 bb 3b e1 1f e5 b9 03 6f eb bd 93 c6 5b bd
       0.0057279835 -0.00043702035 -0.11495783 -0.053656172
0002d0 e8 25 bb bd 0d 10 69 3d bb 26 f4 bd 9a b4 37 be
       -0.091380894 0.056900073 -0.1192145 -0.17939988
0002e0 3b 9e 99 bd 0a bd 6a bd d5 03 21 bd a5 6e 0c be
       -0.07500883 -0.057309188 -0.039310295 -0.13714083
0002f0 87 62 c6 bc 9f cc 98 3c 00 34 c7 bd c3 83 e0 bd
       -0.024216903 0.018652258 -0.09726715 -0.109626316
000300 99 cd ce bc f3 c6 b4 bc 9e 81 2c bd 44 be 89 3c
       -0.025244521 -0.022067523 -0.0421158 0.016814359
000310 ee 8d 81 bd 9d 1e ef 3b 82 3a 1c be a5 e8 b6 bd
       -0.06325899 0.0072973506 -0.15256694 -0.08931092
000320 b5 51 b0 bd 5c 8b 8c 3c c6 ee bd bd dd 99 0c 3e
       -0.086093344 0.017156295 -0.09274058 0.13730569
000330 5a 38 39 bd f7 c6 7b 3d f1 83 21 be 21 e4 bf bd
       -0.045219757 0.061469045 -0.15772988 -0.09369684
000340 47 e5 d1 bd 1d a3 83 bd fd 51 2b bd e5 5d 2b bd
       -0.10248809 -0.06427596 -0.041826237 -0.04183759
000350 93 d1 31 3d d6 b1 12 be c5 f3 0a 3d d4 bf 4b bd
       0.043412756 -0.14325652 0.033923883 -0.04974349
000360 13 96 76 bd 04 c2 ac 3c 61 11 31 bc 99 b5 7c 3d
       -0.060201716 0.021088608 -0.010807366 0.061696623
000370 56 0d e4 bc aa 84 2c bd e3 f5 3b 3c 5b 4b 13 bd
       -0.02783839 -0.042118706 0.011472198 -0.035960536
000380 ea 8b a6 bd ea 67 e9 bd bb 2b d5 bd 1b 8a 0e be
       -0.08132155 -0.11396773 -0.104087315 -0.1391987
000390 59 ea ed 3d 68 e6 43 3d 9b e1 5a bc 72 20 8b bc
       0.11616964 0.047827154 -0.013359453 -0.016983245
0003a0 19 6d 4f ba d7 45 c1 bb 27 c0 40 be 68 47 22 be
       -0.000791268 -0.005898218 -0.188233 -0.15847552
0003b0 f0 a4 34 3e d3 cc 0a 3e d8 1d c9 be 39 68 8a 3d
       0.17641044 0.13554697 -0.3928058 0.0675816
0003c0 eb 29 75 3e 66 fd d2 bd 51 bd 0b 3d 23 99 2e 3d
       0.23941772 -0.10302238 0.034116093 0.04262651
0003d0 13 63 40 3b f8 34 4e 3e b9 81 78 bd 14 c8 b9 3d
       0.0029355928 0.20137393 -0.06067059 0.09071365
0003e0 47 a0 5b bc 3f a3 1b 3e 30 1c f3 3d 89 eb 44 3d
       -0.013404912 0.15198992 0.11870611 0.048076186
0003f0 e0 0a 9d 3d 08 8e 96 3c 13 4e 9b 3d 78 e9 14 be
       0.0766809 0.018378273 0.07583251 -0.14542186

network_body._body_endoder.seq_layers.2.bias f4 [128]
000000 54 11 9a bc 43 31 6a bc 94 2e f7 3c f3 93 af bd
       -0.01880709 -0.0142939715 0.030173577 -0.08573141
000010 59 1d ec bc c2 d3 26 bd 29 ea 90 3c fa 9f 27 bd
       -0.028822588 -0.04072929 0.017689781 -0.04092405
000020 d6 84 58 bb f7 a2 fb 3c 94 7f 8a bd dd 8b ba 3b
       -0.003303816 0.030717356 -0.06762615 0.0056929425
000030 de b7 2a 3d 47 09 d0 bc 49 71 a7 3c 4f 71 4c bb
       0.041679256 -0.025395049 0.02043976 -0.0031195467
000040 94 e1 2a bd c2 e5 93 bd d8 c8 e1 3b 51 7b ae bc
       -0.041719034 -0.07221557 0.0068903975 -0.021299036
000050 4a b0 9e 3c b9 6a bb bc ea 8a f6 3c f6 04 47 bd
       0.01937117 -0.022878038 0.030095536 -0.048588715
000060 a7 0f 34 bd fb c1 d8 bc 91 5e 36 bd c3 05 18 bd
       -0.04396024 -0.026459685 -0.04452378 -0.03711487
000070 17 ce cd 3c 21 aa 0d bd 2f b9 23 3c cf df 99 bc
       0.025122685 -0.034586076 0.009992882 -0.018783478
000080 f8 24 cb bc 3f 55 a1 bc db 8f f7 ba dd 69 3d bd
       -0.024797902 -0.019693969 -0.0018887477 -0.046243537
000090 db 1e 39 bd 15 d1 32 bc 49 77 76 ba 3f 67 2c bc
       -0.04519544 -0.010914107 -0.000940193 -0.010522663
0000a0 db f9 0d bb 59 45 80 bd bf 12 83 3c 2b 72 3f bc
       -0.0021663818 -0.06263227 0.01600015 -0.011684935
0000b0 e6 f5 99 bc 6a a7 43 bd e0 80 92 bc f0 be 93 bb
       -0.018794011 -0.04776708 -0.017883718 -0.0045088455
0000c0 09 19 da ba 87 4e ab 3c b0 25 06 bd bf cb 3f bc
       -0.0016639541 0.020911468 -0.032750785 -0.011706292
0000d0 2e b0 84 3c 07 8d 4e 3c 2e 48 4c 3b 7b d0 95 bc
       0.01619729 0.012606866 0.0031170952 -0.018287888
0000e0 8b bc 1a bc 3d 03 f2 bc 0b ce 5c bc a6 82 1f bd
       -0.009444366 -0.02954256 -0.013476859 -0.038942955
0000f0 f1 6c 26 bd a5 02 2f 3c a9 99 c1 bc ae 8e 31 3d
       -0.04063124 0.010681783 -0.023632841 0.04334896
000100 4c d0 7c bd ca 3a 62 3c 59 2f 93 3c bf db 8d 3c
       -0.061722085 0.013807962 0.017966913 0.017316697
000110 1e 46 16 3c 15 75 3d bd 61 c2 2d bc 90 23 e0 3b
       0.009171991 -0.046254236 -0.010605426 0.006840177
000120 cd 3e 92 ba ce 28 a1 bc c9 2c d3 bc 0e 5f f8 bc
       -0.0011157632 -0.019672778 -0.025778191 -0.030318763
000130 db 52 3e bd 3b 06 ba 3b 4b c0 a9 3c af 9b a6 3c
       -0.046465736 0.0056770123 0.020721575 0.020337908
000140 38 5b 0b bd a2 b2 34 bc b3 7c 93 bd c1 63 6a bd
       -0.03402254 -0.0110289175 -0.07201519 -0.05722404
000150 11 22 6a bb 70 5e 3f bd 20 7a 38 3d 0c a5 74 3c
       -0.0035725872 -0.046720922 0.045038342 0.014931928
000160 ca e1 d1 bc 16 d4 a2 bc 0e dc f5 3b a9 02 da 3c
       -0.02562036 -0.019876521 0.007503039 0.026612597
000170 7a f9 46 bd 13 8c 35 3c a5 ff 83 bd eb 7e ea bb
       -0.048577763 0.01108076 -0.06445245 -0.007156243
000180 c1 b9 91 bd f7 1e 61 3a b0 bc 5e bb d2 9c b4 3b
       -0.07115508 0.0008587683 -0.0033986978 0.0055118585
000190 98 91 33 3c 03 5b d6 bc b6 60 fb 3c 74 51 9d bc
       0.010960005 -0.026166445 0.030685764 -0.019203879
0001a0 cb ee c2 bc 51 d2 91 bd a0 d2 1e 3c ca 1c 1e bd
       -0.023795506 -0.07120193 0.009693772 -0.038601674
0001b0 c8 c4 8b bd be 5d 10 3d 52 5a a4 bc 92 0f 13 bd
       -0.068246424 0.03524565 -0.0200626 -0.03590352
0001c0 c4 0d 05 3c 39 10 bc bd 45 92 92 3c 9f 65 cc bc
       0.008120958 -0.09182782 0.017892012 -0.0249508
0001d0 73 ca 04 bd 9e d6 0b bd 54 d0 8a 3b 82 72 36 3d
       -0.032419633 -0.03414022 0.0042362604 0.044542797
0001e0 14 9b 44 bd 33 de 68 bd 47 d2 56 bc 1a 69 3e 3d
       -0.047999457 -0.05685253 -0.013111657 0.04648695
0001f0 c8 b8 5c bd 19 cd f8 3c a2 29 8c bc d2 7e 1d bd
       -0.05388716 0.030371236 -0.017109696 -0.038451023
